…
    (12): EmbeddingBag(3194, 2, mode=sum)
    (13): EmbeddingBag(27, 2, mode=sum)
    (14): EmbeddingBag(14992, 2, mode=sum)
    (15): EmbeddingBag(5461306, 2, mode=sum)
    (16): EmbeddingBag(10, 2, mode=sum)
    (17): EmbeddingBag(5652, 2, mode=sum)
    (18): EmbeddingBag(2173, 2, mode=sum)
    (19): EmbeddingBag(4, 2, mode=sum)
    (20): EmbeddingBag(7046547, 2, mode=sum)
    (21): EmbeddingBag(18, 2, mode=sum)
    (22): EmbeddingBag(15, 2, mode=sum)
    (23): EmbeddingBag(286181, 2, mode=sum)
    (24): EmbeddingBag(105, 2, mode=sum)
    (25): EmbeddingBag(142572, 2, mode=sum)
  )
  (bot_l): Sequential(
    (0): Linear(in_features=13, out_features=64, bias=True)
    (1): ReLU()
    (2): Linear(in_features=64, out_features=32, bias=True)
    (3): ReLU()
    (4): Linear(in_features=32, out_features=33, bias=True)
    (5): ReLU()
    (6): Linear(in_features=33, out_features=2, bias=True)
    (7): ReLU()
  )
  (top_l): Sequential(
    (0): Linear(in_features=353, out_features=64, bias=True)
    (1): ReLU()
    (2): Linear(in_features=64, out_features=32, bias=True)
    (3): ReLU()
    (4): Linear(in_features=32, out_features=1, bias=True)
    (5): Sigmoid()
  )
)
2020-11-12 20:19:07,974   
param size = 67.55M
2020-11-12 20:19:07,975   
m_spa=2, ln_emb=[    1460      583 10131227  2202608      305       24    12517      633
        3    93145     5683  8351593     3194       27    14992  5461306
       10     5652     2173        4  7046547       18       15   286181
      105   142572], ln_bot=[13 64 32 33  2], ln_top=[353  64  32   1]
…
    (12): EmbeddingBag(3194, 4, mode=sum)
    (13): EmbeddingBag(27, 4, mode=sum)
    (14): EmbeddingBag(14992, 4, mode=sum)
    (15): EmbeddingBag(5461306, 4, mode=sum)
    (16): EmbeddingBag(10, 4, mode=sum)
    (17): EmbeddingBag(5652, 4, mode=sum)
    (18): EmbeddingBag(2173, 4, mode=sum)
    (19): EmbeddingBag(4, 4, mode=sum)
    (20): EmbeddingBag(7046547, 4, mode=sum)
    (21): EmbeddingBag(18, 4, mode=sum)
    (22): EmbeddingBag(15, 4, mode=sum)
    (23): EmbeddingBag(286181, 4, mode=sum)
    (24): EmbeddingBag(105, 4, mode=sum)
    (25): EmbeddingBag(142572, 4, mode=sum)
  )
  (bot_l): Sequential(
    (0): Linear(in_features=13, out_features=128, bias=True)
    (1): ReLU()
    (2): Linear(in_features=128, out_features=64, bias=True)
    (3): ReLU()
    (4): Linear(in_features=64, out_features=66, bias=True)
    (5): ReLU()
    (6): Linear(in_features=66, out_features=4, bias=True)
    (7): ReLU()
  )
  (top_l): Sequential(
    (0): Linear(in_features=355, out_features=128, bias=True)
    (1): ReLU()
    (2): Linear(in_features=128, out_features=64, bias=True)
    (3): ReLU()
    (4): Linear(in_features=64, out_features=1, bias=True)
    (5): Sigmoid()
  )
)
2020-11-12 20:22:00,752   
param size = 135.12M
2020-11-12 20:22:00,752   
m_spa=4, ln_emb=[    1460      583 10131227  2202608      305       24    12517      633
        3    93145     5683  8351593     3194       27    14992  5461306
       10     5652     2173        4  7046547       18       15   286181
      105   142572], ln_bot=[ 13 128  64  66   4], ln_top=[355 128  64   1]
…
    (12): EmbeddingBag(3194, 6, mode=sum)
    (13): EmbeddingBag(27, 6, mode=sum)
    (14): EmbeddingBag(14992, 6, mode=sum)
    (15): EmbeddingBag(5461306, 6, mode=sum)
    (16): EmbeddingBag(10, 6, mode=sum)
    (17): EmbeddingBag(5652, 6, mode=sum)
    (18): EmbeddingBag(2173, 6, mode=sum)
    (19): EmbeddingBag(4, 6, mode=sum)
    (20): EmbeddingBag(7046547, 6, mode=sum)
    (21): EmbeddingBag(18, 6, mode=sum)
    (22): EmbeddingBag(15, 6, mode=sum)
    (23): EmbeddingBag(286181, 6, mode=sum)
    (24): EmbeddingBag(105, 6, mode=sum)
    (25): EmbeddingBag(142572, 6, mode=sum)
  )
  (bot_l): Sequential(
    (0): Linear(in_features=13, out_features=192, bias=True)
    (1): ReLU()
    (2): Linear(in_features=192, out_features=96, bias=True)
    (3): ReLU()
    (4): Linear(in_features=96, out_features=99, bias=True)
    (5): ReLU()
    (6): Linear(in_features=99, out_features=6, bias=True)
    (7): ReLU()
  )
  (top_l): Sequential(
    (0): Linear(in_features=357, out_features=192, bias=True)
    (1): ReLU()
    (2): Linear(in_features=192, out_features=96, bias=True)
    (3): ReLU()
    (4): Linear(in_features=96, out_features=1, bias=True)
    (5): Sigmoid()
  )
)
2020-11-12 20:25:02,883   
param size = 202.69M
2020-11-12 20:25:02,884   
m_spa=6, ln_emb=[    1460      583 10131227  2202608      305       24    12517      633
        3    93145     5683  8351593     3194       27    14992  5461306
       10     5652     2173        4  7046547       18       15   286181
      105   142572], ln_bot=[ 13 192  96  99   6], ln_top=[357 192  96   1]
…
    (12): EmbeddingBag(3194, 8, mode=sum)
    (13): EmbeddingBag(27, 8, mode=sum)
    (14): EmbeddingBag(14992, 8, mode=sum)
    (15): EmbeddingBag(5461306, 8, mode=sum)
    (16): EmbeddingBag(10, 8, mode=sum)
    (17): EmbeddingBag(5652, 8, mode=sum)
    (18): EmbeddingBag(2173, 8, mode=sum)
    (19): EmbeddingBag(4, 8, mode=sum)
    (20): EmbeddingBag(7046547, 8, mode=sum)
    (21): EmbeddingBag(18, 8, mode=sum)
    (22): EmbeddingBag(15, 8, mode=sum)
    (23): EmbeddingBag(286181, 8, mode=sum)
    (24): EmbeddingBag(105, 8, mode=sum)
    (25): EmbeddingBag(142572, 8, mode=sum)
  )
  (bot_l): Sequential(
    (0): Linear(in_features=13, out_features=256, bias=True)
    (1): ReLU()
    (2): Linear(in_features=256, out_features=128, bias=True)
    (3): ReLU()
    (4): Linear(in_features=128, out_features=132, bias=True)
    (5): ReLU()
    (6): Linear(in_features=132, out_features=8, bias=True)
    (7): ReLU()
  )
  (top_l): Sequential(
    (0): Linear(in_features=359, out_features=256, bias=True)
    (1): ReLU()
    (2): Linear(in_features=256, out_features=128, bias=True)
    (3): ReLU()
    (4): Linear(in_features=128, out_features=1, bias=True)
    (5): Sigmoid()
  )
)
2020-11-12 20:28:03,311   
param size = 270.28M
2020-11-12 20:28:03,311   
m_spa=8, ln_emb=[    1460      583 10131227  2202608      305       24    12517      633
        3    93145     5683  8351593     3194       27    14992  5461306
       10     5652     2173        4  7046547       18       15   286181
      105   142572], ln_bot=[ 13 256 128 132   8], ln_top=[359 256 128   1]
…
    (12): EmbeddingBag(3194, 10, mode=sum)
    (13): EmbeddingBag(27, 10, mode=sum)
    (14): EmbeddingBag(14992, 10, mode=sum)
    (15): EmbeddingBag(5461306, 10, mode=sum)
    (16): EmbeddingBag(10, 10, mode=sum)
    (17): EmbeddingBag(5652, 10, mode=sum)
    (18): EmbeddingBag(2173, 10, mode=sum)
    (19): EmbeddingBag(4, 10, mode=sum)
    (20): EmbeddingBag(7046547, 10, mode=sum)
    (21): EmbeddingBag(18, 10, mode=sum)
    (22): EmbeddingBag(15, 10, mode=sum)
    (23): EmbeddingBag(286181, 10, mode=sum)
    (24): EmbeddingBag(105, 10, mode=sum)
    (25): EmbeddingBag(142572, 10, mode=sum)
  )
  (bot_l): Sequential(
    (0): Linear(in_features=13, out_features=320, bias=True)
    (1): ReLU()
    (2): Linear(in_features=320, out_features=160, bias=True)
    (3): ReLU()
    (4): Linear(in_features=160, out_features=165, bias=True)
    (5): ReLU()
    (6): Linear(in_features=165, out_features=10, bias=True)
    (7): ReLU()
  )
  (top_l): Sequential(
    (0): Linear(in_features=361, out_features=320, bias=True)
    (1): ReLU()
    (2): Linear(in_features=320, out_features=160, bias=True)
    (3): ReLU()
    (4): Linear(in_features=160, out_features=1, bias=True)
    (5): Sigmoid()
  )
)
2020-11-12 20:37:54,610   
param size = 337.88M
2020-11-12 20:37:54,610   
m_spa=10, ln_emb=[    1460      583 10131227  2202608      305       24    12517      633
        3    93145     5683  8351593     3194       27    14992  5461306
       10     5652     2173        4  7046547       18       15   286181
      105   142572], ln_bot=[ 13 320 160 165  10], ln_top=[361 320 160   1]
…
