…
    (12): EmbeddingBag(3194, 8, mode=sum)
    (13): EmbeddingBag(27, 8, mode=sum)
    (14): EmbeddingBag(14992, 8, mode=sum)
    (15): EmbeddingBag(5461306, 8, mode=sum)
    (16): EmbeddingBag(10, 8, mode=sum)
    (17): EmbeddingBag(5652, 8, mode=sum)
    (18): EmbeddingBag(2173, 8, mode=sum)
    (19): EmbeddingBag(4, 8, mode=sum)
    (20): EmbeddingBag(7046547, 8, mode=sum)
    (21): EmbeddingBag(18, 8, mode=sum)
    (22): EmbeddingBag(15, 8, mode=sum)
    (23): EmbeddingBag(286181, 8, mode=sum)
    (24): EmbeddingBag(105, 8, mode=sum)
    (25): EmbeddingBag(142572, 8, mode=sum)
  )
  (bot_l): Sequential(
    (0): Linear(in_features=13, out_features=128, bias=True)
    (1): ReLU()
    (2): Linear(in_features=128, out_features=64, bias=True)
    (3): ReLU()
    (4): Linear(in_features=64, out_features=66, bias=True)
    (5): ReLU()
    (6): Linear(in_features=66, out_features=8, bias=True)
    (7): ReLU()
  )
  (top_l): Sequential(
    (0): Linear(in_features=359, out_features=128, bias=True)
    (1): ReLU()
    (2): Linear(in_features=128, out_features=64, bias=True)
    (3): ReLU()
    (4): Linear(in_features=64, out_features=1, bias=True)
    (5): Sigmoid()
  )
)
2020-11-13 20:35:51,929   
param size = 270.17M
2020-11-13 20:35:51,930   
m_spa=8, ln_emb=[    1460      583 10131227  2202608      305       24    12517      633
        3    93145     5683  8351593     3194       27    14992  5461306
       10     5652     2173        4  7046547       18       15   286181
      105   142572], ln_bot=[ 13 128  64  66   8], ln_top=[359 128  64   1]
…
    (12): EmbeddingBag(3194, 8, mode=sum)
    (13): EmbeddingBag(27, 8, mode=sum)
    (14): EmbeddingBag(14992, 8, mode=sum)
    (15): EmbeddingBag(5461306, 8, mode=sum)
    (16): EmbeddingBag(10, 8, mode=sum)
    (17): EmbeddingBag(5652, 8, mode=sum)
    (18): EmbeddingBag(2173, 8, mode=sum)
    (19): EmbeddingBag(4, 8, mode=sum)
    (20): EmbeddingBag(7046547, 8, mode=sum)
    (21): EmbeddingBag(18, 8, mode=sum)
    (22): EmbeddingBag(15, 8, mode=sum)
    (23): EmbeddingBag(286181, 8, mode=sum)
    (24): EmbeddingBag(105, 8, mode=sum)
    (25): EmbeddingBag(142572, 8, mode=sum)
  )
  (bot_l): Sequential(
    (0): Linear(in_features=13, out_features=256, bias=True)
    (1): ReLU()
    (2): Linear(in_features=256, out_features=128, bias=True)
    (3): ReLU()
    (4): Linear(in_features=128, out_features=132, bias=True)
    (5): ReLU()
    (6): Linear(in_features=132, out_features=8, bias=True)
    (7): ReLU()
  )
  (top_l): Sequential(
    (0): Linear(in_features=359, out_features=256, bias=True)
    (1): ReLU()
    (2): Linear(in_features=256, out_features=128, bias=True)
    (3): ReLU()
    (4): Linear(in_features=128, out_features=1, bias=True)
    (5): Sigmoid()
  )
)
2020-11-13 21:00:27,176   
param size = 270.28M
2020-11-13 21:00:27,176   
m_spa=8, ln_emb=[    1460      583 10131227  2202608      305       24    12517      633
        3    93145     5683  8351593     3194       27    14992  5461306
       10     5652     2173        4  7046547       18       15   286181
      105   142572], ln_bot=[ 13 256 128 132   8], ln_top=[359 256 128   1]
…
    (12): EmbeddingBag(3194, 8, mode=sum)
    (13): EmbeddingBag(27, 8, mode=sum)
    (14): EmbeddingBag(14992, 8, mode=sum)
    (15): EmbeddingBag(5461306, 8, mode=sum)
    (16): EmbeddingBag(10, 8, mode=sum)
    (17): EmbeddingBag(5652, 8, mode=sum)
    (18): EmbeddingBag(2173, 8, mode=sum)
    (19): EmbeddingBag(4, 8, mode=sum)
    (20): EmbeddingBag(7046547, 8, mode=sum)
    (21): EmbeddingBag(18, 8, mode=sum)
    (22): EmbeddingBag(15, 8, mode=sum)
    (23): EmbeddingBag(286181, 8, mode=sum)
    (24): EmbeddingBag(105, 8, mode=sum)
    (25): EmbeddingBag(142572, 8, mode=sum)
  )
  (bot_l): Sequential(
    (0): Linear(in_features=13, out_features=384, bias=True)
    (1): ReLU()
    (2): Linear(in_features=384, out_features=192, bias=True)
    (3): ReLU()
    (4): Linear(in_features=192, out_features=198, bias=True)
    (5): ReLU()
    (6): Linear(in_features=198, out_features=8, bias=True)
    (7): ReLU()
  )
  (top_l): Sequential(
    (0): Linear(in_features=359, out_features=384, bias=True)
    (1): ReLU()
    (2): Linear(in_features=384, out_features=192, bias=True)
    (3): ReLU()
    (4): Linear(in_features=192, out_features=1, bias=True)
    (5): Sigmoid()
  )
)
2020-11-13 21:41:10,296   
param size = 270.43M
2020-11-13 21:41:10,296   
m_spa=8, ln_emb=[    1460      583 10131227  2202608      305       24    12517      633
        3    93145     5683  8351593     3194       27    14992  5461306
       10     5652     2173        4  7046547       18       15   286181
      105   142572], ln_bot=[ 13 384 192 198   8], ln_top=[359 384 192   1]
…
