…
    (12): EmbeddingBag(3194, 16, mode=sum)
    (13): EmbeddingBag(27, 16, mode=sum)
    (14): EmbeddingBag(14992, 16, mode=sum)
    (15): EmbeddingBag(5461306, 16, mode=sum)
    (16): EmbeddingBag(10, 16, mode=sum)
    (17): EmbeddingBag(5652, 16, mode=sum)
    (18): EmbeddingBag(2173, 16, mode=sum)
    (19): EmbeddingBag(4, 16, mode=sum)
    (20): EmbeddingBag(7046547, 16, mode=sum)
    (21): EmbeddingBag(18, 16, mode=sum)
    (22): EmbeddingBag(15, 16, mode=sum)
    (23): EmbeddingBag(286181, 16, mode=sum)
    (24): EmbeddingBag(105, 16, mode=sum)
    (25): EmbeddingBag(142572, 16, mode=sum)
  )
  (bot_l): Sequential(
    (0): Linear(in_features=13, out_features=64, bias=True)
    (1): ReLU()
    (2): Linear(in_features=64, out_features=32, bias=True)
    (3): ReLU()
    (4): Linear(in_features=32, out_features=33, bias=True)
    (5): ReLU()
    (6): Linear(in_features=33, out_features=16, bias=True)
    (7): ReLU()
  )
  (top_l): Sequential(
    (0): Linear(in_features=367, out_features=64, bias=True)
    (1): ReLU()
    (2): Linear(in_features=64, out_features=32, bias=True)
    (3): ReLU()
    (4): Linear(in_features=32, out_features=1, bias=True)
    (5): Sigmoid()
  )
)
2020-11-06 02:13:12,469   Growth ID 0, Growing from 1X to 2X.....
2020-11-06 02:13:12,470   m_spa=16, ln_emb=[    1460      583 10131227  2202608      305       24    12517      633
        3    93145     5683  8351593     3194       27    14992  5461306
       10     5652     2173        4  7046547       18       15   286181
      105   142572], ln_bot=[ 13 128  64  66  16], ln_top=[367 128  64   1]
…
    (12): EmbeddingBag(3194, 16, mode=sum)
    (13): EmbeddingBag(27, 16, mode=sum)
    (14): EmbeddingBag(14992, 16, mode=sum)
    (15): EmbeddingBag(5461306, 16, mode=sum)
    (16): EmbeddingBag(10, 16, mode=sum)
    (17): EmbeddingBag(5652, 16, mode=sum)
    (18): EmbeddingBag(2173, 16, mode=sum)
    (19): EmbeddingBag(4, 16, mode=sum)
    (20): EmbeddingBag(7046547, 16, mode=sum)
    (21): EmbeddingBag(18, 16, mode=sum)
    (22): EmbeddingBag(15, 16, mode=sum)
    (23): EmbeddingBag(286181, 16, mode=sum)
    (24): EmbeddingBag(105, 16, mode=sum)
    (25): EmbeddingBag(142572, 16, mode=sum)
  )
  (bot_l): Sequential(
    (0): Linear(in_features=13, out_features=128, bias=True)
    (1): ReLU()
    (2): Linear(in_features=128, out_features=64, bias=True)
    (3): ReLU()
    (4): Linear(in_features=64, out_features=66, bias=True)
    (5): ReLU()
    (6): Linear(in_features=66, out_features=16, bias=True)
    (7): ReLU()
  )
  (top_l): Sequential(
    (0): Linear(in_features=367, out_features=128, bias=True)
    (1): ReLU()
    (2): Linear(in_features=128, out_features=64, bias=True)
    (3): ReLU()
    (4): Linear(in_features=64, out_features=1, bias=True)
    (5): Sigmoid()
  )
)
2020-11-06 11:38:58,673   Growth ID 1, Growing from 2X to 3X.....
2020-11-06 11:38:58,674   m_spa=16, ln_emb=[    1460      583 10131227  2202608      305       24    12517      633
        3    93145     5683  8351593     3194       27    14992  5461306
       10     5652     2173        4  7046547       18       15   286181
      105   142572], ln_bot=[ 13 192  96  99  16], ln_top=[367 192  96   1]
…
    (12): EmbeddingBag(3194, 16, mode=sum)
    (13): EmbeddingBag(27, 16, mode=sum)
    (14): EmbeddingBag(14992, 16, mode=sum)
    (15): EmbeddingBag(5461306, 16, mode=sum)
    (16): EmbeddingBag(10, 16, mode=sum)
    (17): EmbeddingBag(5652, 16, mode=sum)
    (18): EmbeddingBag(2173, 16, mode=sum)
    (19): EmbeddingBag(4, 16, mode=sum)
    (20): EmbeddingBag(7046547, 16, mode=sum)
    (21): EmbeddingBag(18, 16, mode=sum)
    (22): EmbeddingBag(15, 16, mode=sum)
    (23): EmbeddingBag(286181, 16, mode=sum)
    (24): EmbeddingBag(105, 16, mode=sum)
    (25): EmbeddingBag(142572, 16, mode=sum)
  )
  (bot_l): Sequential(
    (0): Linear(in_features=13, out_features=192, bias=True)
    (1): ReLU()
    (2): Linear(in_features=192, out_features=96, bias=True)
    (3): ReLU()
    (4): Linear(in_features=96, out_features=99, bias=True)
    (5): ReLU()
    (6): Linear(in_features=99, out_features=16, bias=True)
    (7): ReLU()
  )
  (top_l): Sequential(
    (0): Linear(in_features=367, out_features=192, bias=True)
    (1): ReLU()
    (2): Linear(in_features=192, out_features=96, bias=True)
    (3): ReLU()
    (4): Linear(in_features=96, out_features=1, bias=True)
    (5): Sigmoid()
  )
)
2020-11-06 11:39:51,388   Growth ID 2, Growing from 3X to 4X.....
2020-11-06 11:39:51,389   m_spa=16, ln_emb=[    1460      583 10131227  2202608      305       24    12517      633
        3    93145     5683  8351593     3194       27    14992  5461306
       10     5652     2173        4  7046547       18       15   286181
      105   142572], ln_bot=[ 13 256 128 132  16], ln_top=[367 256 128   1]
…
    (12): EmbeddingBag(3194, 16, mode=sum)
    (13): EmbeddingBag(27, 16, mode=sum)
    (14): EmbeddingBag(14992, 16, mode=sum)
    (15): EmbeddingBag(5461306, 16, mode=sum)
    (16): EmbeddingBag(10, 16, mode=sum)
    (17): EmbeddingBag(5652, 16, mode=sum)
    (18): EmbeddingBag(2173, 16, mode=sum)
    (19): EmbeddingBag(4, 16, mode=sum)
    (20): EmbeddingBag(7046547, 16, mode=sum)
    (21): EmbeddingBag(18, 16, mode=sum)
    (22): EmbeddingBag(15, 16, mode=sum)
    (23): EmbeddingBag(286181, 16, mode=sum)
    (24): EmbeddingBag(105, 16, mode=sum)
    (25): EmbeddingBag(142572, 16, mode=sum)
  )
  (bot_l): Sequential(
    (0): Linear(in_features=13, out_features=256, bias=True)
    (1): ReLU()
    (2): Linear(in_features=256, out_features=128, bias=True)
    (3): ReLU()
    (4): Linear(in_features=128, out_features=132, bias=True)
    (5): ReLU()
    (6): Linear(in_features=132, out_features=16, bias=True)
    (7): ReLU()
  )
  (top_l): Sequential(
    (0): Linear(in_features=367, out_features=256, bias=True)
    (1): ReLU()
    (2): Linear(in_features=256, out_features=128, bias=True)
    (3): ReLU()
    (4): Linear(in_features=128, out_features=1, bias=True)
    (5): Sigmoid()
  )
)
2020-11-06 11:40:43,874   Growth ID 3, Growing from 4X to 5X.....
2020-11-06 11:40:43,875   m_spa=16, ln_emb=[    1460      583 10131227  2202608      305       24    12517      633
        3    93145     5683  8351593     3194       27    14992  5461306
       10     5652     2173        4  7046547       18       15   286181
      105   142572], ln_bot=[ 13 320 160 165  16], ln_top=[367 320 160   1]
…
    (12): EmbeddingBag(3194, 16, mode=sum)
    (13): EmbeddingBag(27, 16, mode=sum)
    (14): EmbeddingBag(14992, 16, mode=sum)
    (15): EmbeddingBag(5461306, 16, mode=sum)
    (16): EmbeddingBag(10, 16, mode=sum)
    (17): EmbeddingBag(5652, 16, mode=sum)
    (18): EmbeddingBag(2173, 16, mode=sum)
    (19): EmbeddingBag(4, 16, mode=sum)
    (20): EmbeddingBag(7046547, 16, mode=sum)
    (21): EmbeddingBag(18, 16, mode=sum)
    (22): EmbeddingBag(15, 16, mode=sum)
    (23): EmbeddingBag(286181, 16, mode=sum)
    (24): EmbeddingBag(105, 16, mode=sum)
    (25): EmbeddingBag(142572, 16, mode=sum)
  )
  (bot_l): Sequential(
    (0): Linear(in_features=13, out_features=320, bias=True)
    (1): ReLU()
    (2): Linear(in_features=320, out_features=160, bias=True)
    (3): ReLU()
    (4): Linear(in_features=160, out_features=165, bias=True)
    (5): ReLU()
    (6): Linear(in_features=165, out_features=16, bias=True)
    (7): ReLU()
  )
  (top_l): Sequential(
    (0): Linear(in_features=367, out_features=320, bias=True)
    (1): ReLU()
    (2): Linear(in_features=320, out_features=160, bias=True)
    (3): ReLU()
    (4): Linear(in_features=160, out_features=1, bias=True)
    (5): Sigmoid()
  )
)
2020-11-06 11:41:35,461   Growth ID 4, Growing from 5X to 6X.....
2020-11-06 11:41:35,461   m_spa=16, ln_emb=[    1460      583 10131227  2202608      305       24    12517      633
        3    93145     5683  8351593     3194       27    14992  5461306
       10     5652     2173        4  7046547       18       15   286181
      105   142572], ln_bot=[ 13 384 192 198  16], ln_top=[367 384 192   1]
…
    (12): EmbeddingBag(3194, 16, mode=sum)
    (13): EmbeddingBag(27, 16, mode=sum)
    (14): EmbeddingBag(14992, 16, mode=sum)
    (15): EmbeddingBag(5461306, 16, mode=sum)
    (16): EmbeddingBag(10, 16, mode=sum)
    (17): EmbeddingBag(5652, 16, mode=sum)
    (18): EmbeddingBag(2173, 16, mode=sum)
    (19): EmbeddingBag(4, 16, mode=sum)
    (20): EmbeddingBag(7046547, 16, mode=sum)
    (21): EmbeddingBag(18, 16, mode=sum)
    (22): EmbeddingBag(15, 16, mode=sum)
    (23): EmbeddingBag(286181, 16, mode=sum)
    (24): EmbeddingBag(105, 16, mode=sum)
    (25): EmbeddingBag(142572, 16, mode=sum)
  )
  (bot_l): Sequential(
    (0): Linear(in_features=13, out_features=384, bias=True)
    (1): ReLU()
    (2): Linear(in_features=384, out_features=192, bias=True)
    (3): ReLU()
    (4): Linear(in_features=192, out_features=198, bias=True)
    (5): ReLU()
    (6): Linear(in_features=198, out_features=16, bias=True)
    (7): ReLU()
  )
  (top_l): Sequential(
    (0): Linear(in_features=367, out_features=384, bias=True)
    (1): ReLU()
    (2): Linear(in_features=384, out_features=192, bias=True)
    (3): ReLU()
    (4): Linear(in_features=192, out_features=1, bias=True)
    (5): Sigmoid()
  )
)
2020-11-06 11:42:15,093   Growth ID 5, Growing from 6X to 7X.....
2020-11-06 11:42:15,093   m_spa=16, ln_emb=[    1460      583 10131227  2202608      305       24    12517      633
        3    93145     5683  8351593     3194       27    14992  5461306
       10     5652     2173        4  7046547       18       15   286181
      105   142572], ln_bot=[ 13 448 224 231  16], ln_top=[367 448 224   1]
…
    (12): EmbeddingBag(3194, 16, mode=sum)
    (13): EmbeddingBag(27, 16, mode=sum)
    (14): EmbeddingBag(14992, 16, mode=sum)
    (15): EmbeddingBag(5461306, 16, mode=sum)
    (16): EmbeddingBag(10, 16, mode=sum)
    (17): EmbeddingBag(5652, 16, mode=sum)
    (18): EmbeddingBag(2173, 16, mode=sum)
    (19): EmbeddingBag(4, 16, mode=sum)
    (20): EmbeddingBag(7046547, 16, mode=sum)
    (21): EmbeddingBag(18, 16, mode=sum)
    (22): EmbeddingBag(15, 16, mode=sum)
    (23): EmbeddingBag(286181, 16, mode=sum)
    (24): EmbeddingBag(105, 16, mode=sum)
    (25): EmbeddingBag(142572, 16, mode=sum)
  )
  (bot_l): Sequential(
    (0): Linear(in_features=13, out_features=448, bias=True)
    (1): ReLU()
    (2): Linear(in_features=448, out_features=224, bias=True)
    (3): ReLU()
    (4): Linear(in_features=224, out_features=231, bias=True)
    (5): ReLU()
    (6): Linear(in_features=231, out_features=16, bias=True)
    (7): ReLU()
  )
  (top_l): Sequential(
    (0): Linear(in_features=367, out_features=448, bias=True)
    (1): ReLU()
    (2): Linear(in_features=448, out_features=224, bias=True)
    (3): ReLU()
    (4): Linear(in_features=224, out_features=1, bias=True)
    (5): Sigmoid()
  )
)
2020-11-06 11:42:54,732   Growth ID 6, Growing from 7X to 8X.....
2020-11-06 11:42:54,732   m_spa=16, ln_emb=[    1460      583 10131227  2202608      305       24    12517      633
        3    93145     5683  8351593     3194       27    14992  5461306
       10     5652     2173        4  7046547       18       15   286181
      105   142572], ln_bot=[ 13 512 256 264  16], ln_top=[367 512 256   1]
…
    (12): EmbeddingBag(3194, 16, mode=sum)
    (13): EmbeddingBag(27, 16, mode=sum)
    (14): EmbeddingBag(14992, 16, mode=sum)
    (15): EmbeddingBag(5461306, 16, mode=sum)
    (16): EmbeddingBag(10, 16, mode=sum)
    (17): EmbeddingBag(5652, 16, mode=sum)
    (18): EmbeddingBag(2173, 16, mode=sum)
    (19): EmbeddingBag(4, 16, mode=sum)
    (20): EmbeddingBag(7046547, 16, mode=sum)
    (21): EmbeddingBag(18, 16, mode=sum)
    (22): EmbeddingBag(15, 16, mode=sum)
    (23): EmbeddingBag(286181, 16, mode=sum)
    (24): EmbeddingBag(105, 16, mode=sum)
    (25): EmbeddingBag(142572, 16, mode=sum)
  )
  (bot_l): Sequential(
    (0): Linear(in_features=13, out_features=512, bias=True)
    (1): ReLU()
    (2): Linear(in_features=512, out_features=256, bias=True)
    (3): ReLU()
    (4): Linear(in_features=256, out_features=264, bias=True)
    (5): ReLU()
    (6): Linear(in_features=264, out_features=16, bias=True)
    (7): ReLU()
  )
  (top_l): Sequential(
    (0): Linear(in_features=367, out_features=512, bias=True)
    (1): ReLU()
    (2): Linear(in_features=512, out_features=256, bias=True)
    (3): ReLU()
    (4): Linear(in_features=256, out_features=1, bias=True)
    (5): Sigmoid()
  )
)
2020-11-06 11:43:34,320   Growth ID 7, Growing from 8X to 9X.....
2020-11-06 11:43:34,321   m_spa=16, ln_emb=[    1460      583 10131227  2202608      305       24    12517      633
        3    93145     5683  8351593     3194       27    14992  5461306
       10     5652     2173        4  7046547       18       15   286181
      105   142572], ln_bot=[ 13 576 288 297  16], ln_top=[367 576 288   1]
…
    (12): EmbeddingBag(3194, 16, mode=sum)
    (13): EmbeddingBag(27, 16, mode=sum)
    (14): EmbeddingBag(14992, 16, mode=sum)
    (15): EmbeddingBag(5461306, 16, mode=sum)
    (16): EmbeddingBag(10, 16, mode=sum)
    (17): EmbeddingBag(5652, 16, mode=sum)
    (18): EmbeddingBag(2173, 16, mode=sum)
    (19): EmbeddingBag(4, 16, mode=sum)
    (20): EmbeddingBag(7046547, 16, mode=sum)
    (21): EmbeddingBag(18, 16, mode=sum)
    (22): EmbeddingBag(15, 16, mode=sum)
    (23): EmbeddingBag(286181, 16, mode=sum)
    (24): EmbeddingBag(105, 16, mode=sum)
    (25): EmbeddingBag(142572, 16, mode=sum)
  )
  (bot_l): Sequential(
    (0): Linear(in_features=13, out_features=576, bias=True)
    (1): ReLU()
    (2): Linear(in_features=576, out_features=288, bias=True)
    (3): ReLU()
    (4): Linear(in_features=288, out_features=297, bias=True)
    (5): ReLU()
    (6): Linear(in_features=297, out_features=16, bias=True)
    (7): ReLU()
  )
  (top_l): Sequential(
    (0): Linear(in_features=367, out_features=576, bias=True)
    (1): ReLU()
    (2): Linear(in_features=576, out_features=288, bias=True)
    (3): ReLU()
    (4): Linear(in_features=288, out_features=1, bias=True)
    (5): Sigmoid()
  )
)
2020-11-06 11:44:14,177   Growth ID 8, Growing from 9X to 10X.....
2020-11-06 11:44:14,177   m_spa=16, ln_emb=[    1460      583 10131227  2202608      305       24    12517      633
        3    93145     5683  8351593     3194       27    14992  5461306
       10     5652     2173        4  7046547       18       15   286181
      105   142572], ln_bot=[ 13 640 320 330  16], ln_top=[367 640 320   1]
…
    (12): EmbeddingBag(3194, 16, mode=sum)
    (13): EmbeddingBag(27, 16, mode=sum)
    (14): EmbeddingBag(14992, 16, mode=sum)
    (15): EmbeddingBag(5461306, 16, mode=sum)
    (16): EmbeddingBag(10, 16, mode=sum)
    (17): EmbeddingBag(5652, 16, mode=sum)
    (18): EmbeddingBag(2173, 16, mode=sum)
    (19): EmbeddingBag(4, 16, mode=sum)
    (20): EmbeddingBag(7046547, 16, mode=sum)
    (21): EmbeddingBag(18, 16, mode=sum)
    (22): EmbeddingBag(15, 16, mode=sum)
    (23): EmbeddingBag(286181, 16, mode=sum)
    (24): EmbeddingBag(105, 16, mode=sum)
    (25): EmbeddingBag(142572, 16, mode=sum)
  )
  (bot_l): Sequential(
    (0): Linear(in_features=13, out_features=640, bias=True)
    (1): ReLU()
    (2): Linear(in_features=640, out_features=320, bias=True)
    (3): ReLU()
    (4): Linear(in_features=320, out_features=330, bias=True)
    (5): ReLU()
    (6): Linear(in_features=330, out_features=16, bias=True)
    (7): ReLU()
  )
  (top_l): Sequential(
    (0): Linear(in_features=367, out_features=640, bias=True)
    (1): ReLU()
    (2): Linear(in_features=640, out_features=320, bias=True)
    (3): ReLU()
    (4): Linear(in_features=320, out_features=1, bias=True)
    (5): Sigmoid()
  )
)
2020-11-06 11:44:53,967   Growth ID 9, Growing from 10X to 11X.....
2020-11-06 11:44:53,967   m_spa=16, ln_emb=[    1460      583 10131227  2202608      305       24    12517      633
        3    93145     5683  8351593     3194       27    14992  5461306
       10     5652     2173        4  7046547       18       15   286181
      105   142572], ln_bot=[ 13 704 352 363  16], ln_top=[367 704 352   1]
…
    (12): EmbeddingBag(3194, 16, mode=sum)
    (13): EmbeddingBag(27, 16, mode=sum)
    (14): EmbeddingBag(14992, 16, mode=sum)
    (15): EmbeddingBag(5461306, 16, mode=sum)
    (16): EmbeddingBag(10, 16, mode=sum)
    (17): EmbeddingBag(5652, 16, mode=sum)
    (18): EmbeddingBag(2173, 16, mode=sum)
    (19): EmbeddingBag(4, 16, mode=sum)
    (20): EmbeddingBag(7046547, 16, mode=sum)
    (21): EmbeddingBag(18, 16, mode=sum)
    (22): EmbeddingBag(15, 16, mode=sum)
    (23): EmbeddingBag(286181, 16, mode=sum)
    (24): EmbeddingBag(105, 16, mode=sum)
    (25): EmbeddingBag(142572, 16, mode=sum)
  )
  (bot_l): Sequential(
    (0): Linear(in_features=13, out_features=704, bias=True)
    (1): ReLU()
    (2): Linear(in_features=704, out_features=352, bias=True)
    (3): ReLU()
    (4): Linear(in_features=352, out_features=363, bias=True)
    (5): ReLU()
    (6): Linear(in_features=363, out_features=16, bias=True)
    (7): ReLU()
  )
  (top_l): Sequential(
    (0): Linear(in_features=367, out_features=704, bias=True)
    (1): ReLU()
    (2): Linear(in_features=704, out_features=352, bias=True)
    (3): ReLU()
    (4): Linear(in_features=352, out_features=1, bias=True)
    (5): Sigmoid()
  )
)
2020-11-06 11:45:33,685   Growth ID 10, Growing from 11X to 12X.....
2020-11-06 11:45:33,686   m_spa=16, ln_emb=[    1460      583 10131227  2202608      305       24    12517      633
        3    93145     5683  8351593     3194       27    14992  5461306
       10     5652     2173        4  7046547       18       15   286181
      105   142572], ln_bot=[ 13 768 384 396  16], ln_top=[367 768 384   1]
…
    (12): EmbeddingBag(3194, 16, mode=sum)
    (13): EmbeddingBag(27, 16, mode=sum)
    (14): EmbeddingBag(14992, 16, mode=sum)
    (15): EmbeddingBag(5461306, 16, mode=sum)
    (16): EmbeddingBag(10, 16, mode=sum)
    (17): EmbeddingBag(5652, 16, mode=sum)
    (18): EmbeddingBag(2173, 16, mode=sum)
    (19): EmbeddingBag(4, 16, mode=sum)
    (20): EmbeddingBag(7046547, 16, mode=sum)
    (21): EmbeddingBag(18, 16, mode=sum)
    (22): EmbeddingBag(15, 16, mode=sum)
    (23): EmbeddingBag(286181, 16, mode=sum)
    (24): EmbeddingBag(105, 16, mode=sum)
    (25): EmbeddingBag(142572, 16, mode=sum)
  )
  (bot_l): Sequential(
    (0): Linear(in_features=13, out_features=768, bias=True)
    (1): ReLU()
    (2): Linear(in_features=768, out_features=384, bias=True)
    (3): ReLU()
    (4): Linear(in_features=384, out_features=396, bias=True)
    (5): ReLU()
    (6): Linear(in_features=396, out_features=16, bias=True)
    (7): ReLU()
  )
  (top_l): Sequential(
    (0): Linear(in_features=367, out_features=768, bias=True)
    (1): ReLU()
    (2): Linear(in_features=768, out_features=384, bias=True)
    (3): ReLU()
    (4): Linear(in_features=384, out_features=1, bias=True)
    (5): Sigmoid()
  )
)
2020-11-06 11:46:13,309   Growth ID 11, Growing from 12X to 13X.....
2020-11-06 11:46:13,310   m_spa=16, ln_emb=[    1460      583 10131227  2202608      305       24    12517      633
        3    93145     5683  8351593     3194       27    14992  5461306
       10     5652     2173        4  7046547       18       15   286181
      105   142572], ln_bot=[ 13 832 416 429  16], ln_top=[367 832 416   1]
…
    (12): EmbeddingBag(3194, 16, mode=sum)
    (13): EmbeddingBag(27, 16, mode=sum)
    (14): EmbeddingBag(14992, 16, mode=sum)
    (15): EmbeddingBag(5461306, 16, mode=sum)
    (16): EmbeddingBag(10, 16, mode=sum)
    (17): EmbeddingBag(5652, 16, mode=sum)
    (18): EmbeddingBag(2173, 16, mode=sum)
    (19): EmbeddingBag(4, 16, mode=sum)
    (20): EmbeddingBag(7046547, 16, mode=sum)
    (21): EmbeddingBag(18, 16, mode=sum)
    (22): EmbeddingBag(15, 16, mode=sum)
    (23): EmbeddingBag(286181, 16, mode=sum)
    (24): EmbeddingBag(105, 16, mode=sum)
    (25): EmbeddingBag(142572, 16, mode=sum)
  )
  (bot_l): Sequential(
    (0): Linear(in_features=13, out_features=832, bias=True)
    (1): ReLU()
    (2): Linear(in_features=832, out_features=416, bias=True)
    (3): ReLU()
    (4): Linear(in_features=416, out_features=429, bias=True)
    (5): ReLU()
    (6): Linear(in_features=429, out_features=16, bias=True)
    (7): ReLU()
  )
  (top_l): Sequential(
    (0): Linear(in_features=367, out_features=832, bias=True)
    (1): ReLU()
    (2): Linear(in_features=832, out_features=416, bias=True)
    (3): ReLU()
    (4): Linear(in_features=416, out_features=1, bias=True)
    (5): Sigmoid()
  )
)
2020-11-06 11:46:51,878   Growth ID 12, Growing from 13X to 14X.....
2020-11-06 11:46:51,878   m_spa=16, ln_emb=[    1460      583 10131227  2202608      305       24    12517      633
        3    93145     5683  8351593     3194       27    14992  5461306
       10     5652     2173        4  7046547       18       15   286181
      105   142572], ln_bot=[ 13 896 448 462  16], ln_top=[367 896 448   1]
…
    (12): EmbeddingBag(3194, 16, mode=sum)
    (13): EmbeddingBag(27, 16, mode=sum)
    (14): EmbeddingBag(14992, 16, mode=sum)
    (15): EmbeddingBag(5461306, 16, mode=sum)
    (16): EmbeddingBag(10, 16, mode=sum)
    (17): EmbeddingBag(5652, 16, mode=sum)
    (18): EmbeddingBag(2173, 16, mode=sum)
    (19): EmbeddingBag(4, 16, mode=sum)
    (20): EmbeddingBag(7046547, 16, mode=sum)
    (21): EmbeddingBag(18, 16, mode=sum)
    (22): EmbeddingBag(15, 16, mode=sum)
    (23): EmbeddingBag(286181, 16, mode=sum)
    (24): EmbeddingBag(105, 16, mode=sum)
    (25): EmbeddingBag(142572, 16, mode=sum)
  )
  (bot_l): Sequential(
    (0): Linear(in_features=13, out_features=896, bias=True)
    (1): ReLU()
    (2): Linear(in_features=896, out_features=448, bias=True)
    (3): ReLU()
    (4): Linear(in_features=448, out_features=462, bias=True)
    (5): ReLU()
    (6): Linear(in_features=462, out_features=16, bias=True)
    (7): ReLU()
  )
  (top_l): Sequential(
    (0): Linear(in_features=367, out_features=896, bias=True)
    (1): ReLU()
    (2): Linear(in_features=896, out_features=448, bias=True)
    (3): ReLU()
    (4): Linear(in_features=448, out_features=1, bias=True)
    (5): Sigmoid()
  )
)
2020-11-06 11:47:30,290   Growth ID 13, Growing from 14X to 15X.....
2020-11-06 11:47:30,291   m_spa=16, ln_emb=[    1460      583 10131227  2202608      305       24    12517      633
        3    93145     5683  8351593     3194       27    14992  5461306
       10     5652     2173        4  7046547       18       15   286181
      105   142572], ln_bot=[ 13 960 480 495  16], ln_top=[367 960 480   1]
…
    (12): EmbeddingBag(3194, 16, mode=sum)
    (13): EmbeddingBag(27, 16, mode=sum)
    (14): EmbeddingBag(14992, 16, mode=sum)
    (15): EmbeddingBag(5461306, 16, mode=sum)
    (16): EmbeddingBag(10, 16, mode=sum)
    (17): EmbeddingBag(5652, 16, mode=sum)
    (18): EmbeddingBag(2173, 16, mode=sum)
    (19): EmbeddingBag(4, 16, mode=sum)
    (20): EmbeddingBag(7046547, 16, mode=sum)
    (21): EmbeddingBag(18, 16, mode=sum)
    (22): EmbeddingBag(15, 16, mode=sum)
    (23): EmbeddingBag(286181, 16, mode=sum)
    (24): EmbeddingBag(105, 16, mode=sum)
    (25): EmbeddingBag(142572, 16, mode=sum)
  )
  (bot_l): Sequential(
    (0): Linear(in_features=13, out_features=960, bias=True)
    (1): ReLU()
    (2): Linear(in_features=960, out_features=480, bias=True)
    (3): ReLU()
    (4): Linear(in_features=480, out_features=495, bias=True)
    (5): ReLU()
    (6): Linear(in_features=495, out_features=16, bias=True)
    (7): ReLU()
  )
  (top_l): Sequential(
    (0): Linear(in_features=367, out_features=960, bias=True)
    (1): ReLU()
    (2): Linear(in_features=960, out_features=480, bias=True)
    (3): ReLU()
    (4): Linear(in_features=480, out_features=1, bias=True)
    (5): Sigmoid()
  )
)
2020-11-06 11:48:08,784   Growth ID 14, Growing from 15X to 16X.....
2020-11-06 11:48:08,784   m_spa=16, ln_emb=[    1460      583 10131227  2202608      305       24    12517      633
        3    93145     5683  8351593     3194       27    14992  5461306
       10     5652     2173        4  7046547       18       15   286181
      105   142572], ln_bot=[  13 1024  512  528   16], ln_top=[ 367 1024  512    1]
…
    (12): EmbeddingBag(3194, 16, mode=sum)
    (13): EmbeddingBag(27, 16, mode=sum)
    (14): EmbeddingBag(14992, 16, mode=sum)
    (15): EmbeddingBag(5461306, 16, mode=sum)
    (16): EmbeddingBag(10, 16, mode=sum)
    (17): EmbeddingBag(5652, 16, mode=sum)
    (18): EmbeddingBag(2173, 16, mode=sum)
    (19): EmbeddingBag(4, 16, mode=sum)
    (20): EmbeddingBag(7046547, 16, mode=sum)
    (21): EmbeddingBag(18, 16, mode=sum)
    (22): EmbeddingBag(15, 16, mode=sum)
    (23): EmbeddingBag(286181, 16, mode=sum)
    (24): EmbeddingBag(105, 16, mode=sum)
    (25): EmbeddingBag(142572, 16, mode=sum)
  )
  (bot_l): Sequential(
    (0): Linear(in_features=13, out_features=1024, bias=True)
    (1): ReLU()
    (2): Linear(in_features=1024, out_features=512, bias=True)
    (3): ReLU()
    (4): Linear(in_features=512, out_features=528, bias=True)
    (5): ReLU()
    (6): Linear(in_features=528, out_features=16, bias=True)
    (7): ReLU()
  )
  (top_l): Sequential(
    (0): Linear(in_features=367, out_features=1024, bias=True)
    (1): ReLU()
    (2): Linear(in_features=1024, out_features=512, bias=True)
    (3): ReLU()
    (4): Linear(in_features=512, out_features=1, bias=True)
    (5): Sigmoid()
  )
)
2020-11-06 11:48:47,235   Growth ID 15, Growing from 16X to 17X.....
2020-11-06 11:48:47,236   m_spa=16, ln_emb=[    1460      583 10131227  2202608      305       24    12517      633
        3    93145     5683  8351593     3194       27    14992  5461306
       10     5652     2173        4  7046547       18       15   286181
      105   142572], ln_bot=[  13 1088  544  561   16], ln_top=[ 367 1088  544    1]
…
    (12): EmbeddingBag(3194, 16, mode=sum)
    (13): EmbeddingBag(27, 16, mode=sum)
    (14): EmbeddingBag(14992, 16, mode=sum)
    (15): EmbeddingBag(5461306, 16, mode=sum)
    (16): EmbeddingBag(10, 16, mode=sum)
    (17): EmbeddingBag(5652, 16, mode=sum)
    (18): EmbeddingBag(2173, 16, mode=sum)
    (19): EmbeddingBag(4, 16, mode=sum)
    (20): EmbeddingBag(7046547, 16, mode=sum)
    (21): EmbeddingBag(18, 16, mode=sum)
    (22): EmbeddingBag(15, 16, mode=sum)
    (23): EmbeddingBag(286181, 16, mode=sum)
    (24): EmbeddingBag(105, 16, mode=sum)
    (25): EmbeddingBag(142572, 16, mode=sum)
  )
  (bot_l): Sequential(
    (0): Linear(in_features=13, out_features=1088, bias=True)
    (1): ReLU()
    (2): Linear(in_features=1088, out_features=544, bias=True)
    (3): ReLU()
    (4): Linear(in_features=544, out_features=561, bias=True)
    (5): ReLU()
    (6): Linear(in_features=561, out_features=16, bias=True)
    (7): ReLU()
  )
  (top_l): Sequential(
    (0): Linear(in_features=367, out_features=1088, bias=True)
    (1): ReLU()
    (2): Linear(in_features=1088, out_features=544, bias=True)
    (3): ReLU()
    (4): Linear(in_features=544, out_features=1, bias=True)
    (5): Sigmoid()
  )
)
2020-11-06 11:49:25,816   Growth ID 16, Growing from 17X to 18X.....
2020-11-06 11:49:25,817   m_spa=16, ln_emb=[    1460      583 10131227  2202608      305       24    12517      633
        3    93145     5683  8351593     3194       27    14992  5461306
       10     5652     2173        4  7046547       18       15   286181
      105   142572], ln_bot=[  13 1152  576  594   16], ln_top=[ 367 1152  576    1]
…
    (12): EmbeddingBag(3194, 16, mode=sum)
    (13): EmbeddingBag(27, 16, mode=sum)
    (14): EmbeddingBag(14992, 16, mode=sum)
    (15): EmbeddingBag(5461306, 16, mode=sum)
    (16): EmbeddingBag(10, 16, mode=sum)
    (17): EmbeddingBag(5652, 16, mode=sum)
    (18): EmbeddingBag(2173, 16, mode=sum)
    (19): EmbeddingBag(4, 16, mode=sum)
    (20): EmbeddingBag(7046547, 16, mode=sum)
    (21): EmbeddingBag(18, 16, mode=sum)
    (22): EmbeddingBag(15, 16, mode=sum)
    (23): EmbeddingBag(286181, 16, mode=sum)
    (24): EmbeddingBag(105, 16, mode=sum)
    (25): EmbeddingBag(142572, 16, mode=sum)
  )
  (bot_l): Sequential(
    (0): Linear(in_features=13, out_features=1152, bias=True)
    (1): ReLU()
    (2): Linear(in_features=1152, out_features=576, bias=True)
    (3): ReLU()
    (4): Linear(in_features=576, out_features=594, bias=True)
    (5): ReLU()
    (6): Linear(in_features=594, out_features=16, bias=True)
    (7): ReLU()
  )
  (top_l): Sequential(
    (0): Linear(in_features=367, out_features=1152, bias=True)
    (1): ReLU()
    (2): Linear(in_features=1152, out_features=576, bias=True)
    (3): ReLU()
    (4): Linear(in_features=576, out_features=1, bias=True)
    (5): Sigmoid()
  )
)
2020-11-06 11:50:04,335   Growth ID 17, Growing from 18X to 19X.....
2020-11-06 11:50:04,335   m_spa=16, ln_emb=[    1460      583 10131227  2202608      305       24    12517      633
        3    93145     5683  8351593     3194       27    14992  5461306
       10     5652     2173        4  7046547       18       15   286181
      105   142572], ln_bot=[  13 1216  608  627   16], ln_top=[ 367 1216  608    1]
…
    (12): EmbeddingBag(3194, 16, mode=sum)
    (13): EmbeddingBag(27, 16, mode=sum)
    (14): EmbeddingBag(14992, 16, mode=sum)
    (15): EmbeddingBag(5461306, 16, mode=sum)
    (16): EmbeddingBag(10, 16, mode=sum)
    (17): EmbeddingBag(5652, 16, mode=sum)
    (18): EmbeddingBag(2173, 16, mode=sum)
    (19): EmbeddingBag(4, 16, mode=sum)
    (20): EmbeddingBag(7046547, 16, mode=sum)
    (21): EmbeddingBag(18, 16, mode=sum)
    (22): EmbeddingBag(15, 16, mode=sum)
    (23): EmbeddingBag(286181, 16, mode=sum)
    (24): EmbeddingBag(105, 16, mode=sum)
    (25): EmbeddingBag(142572, 16, mode=sum)
  )
  (bot_l): Sequential(
    (0): Linear(in_features=13, out_features=1216, bias=True)
    (1): ReLU()
    (2): Linear(in_features=1216, out_features=608, bias=True)
    (3): ReLU()
    (4): Linear(in_features=608, out_features=627, bias=True)
    (5): ReLU()
    (6): Linear(in_features=627, out_features=16, bias=True)
    (7): ReLU()
  )
  (top_l): Sequential(
    (0): Linear(in_features=367, out_features=1216, bias=True)
    (1): ReLU()
    (2): Linear(in_features=1216, out_features=608, bias=True)
    (3): ReLU()
    (4): Linear(in_features=608, out_features=1, bias=True)
    (5): Sigmoid()
  )
)
2020-11-06 11:50:42,849   Growth ID 18, Growing from 19X to 20X.....
2020-11-06 11:50:42,849   m_spa=16, ln_emb=[    1460      583 10131227  2202608      305       24    12517      633
        3    93145     5683  8351593     3194       27    14992  5461306
       10     5652     2173        4  7046547       18       15   286181
      105   142572], ln_bot=[  13 1280  640  660   16], ln_top=[ 367 1280  640    1]
…
    (12): EmbeddingBag(3194, 16, mode=sum)
    (13): EmbeddingBag(27, 16, mode=sum)
    (14): EmbeddingBag(14992, 16, mode=sum)
    (15): EmbeddingBag(5461306, 16, mode=sum)
    (16): EmbeddingBag(10, 16, mode=sum)
    (17): EmbeddingBag(5652, 16, mode=sum)
    (18): EmbeddingBag(2173, 16, mode=sum)
    (19): EmbeddingBag(4, 16, mode=sum)
    (20): EmbeddingBag(7046547, 16, mode=sum)
    (21): EmbeddingBag(18, 16, mode=sum)
    (22): EmbeddingBag(15, 16, mode=sum)
    (23): EmbeddingBag(286181, 16, mode=sum)
    (24): EmbeddingBag(105, 16, mode=sum)
    (25): EmbeddingBag(142572, 16, mode=sum)
  )
  (bot_l): Sequential(
    (0): Linear(in_features=13, out_features=1280, bias=True)
    (1): ReLU()
    (2): Linear(in_features=1280, out_features=640, bias=True)
    (3): ReLU()
    (4): Linear(in_features=640, out_features=660, bias=True)
    (5): ReLU()
    (6): Linear(in_features=660, out_features=16, bias=True)
    (7): ReLU()
  )
  (top_l): Sequential(
    (0): Linear(in_features=367, out_features=1280, bias=True)
    (1): ReLU()
    (2): Linear(in_features=1280, out_features=640, bias=True)
    (3): ReLU()
    (4): Linear(in_features=640, out_features=1, bias=True)
    (5): Sigmoid()
  )
)
2020-11-06 11:51:21,461   Growth ID 19, Growing from 20X to 21X.....
2020-11-06 11:51:21,461   m_spa=16, ln_emb=[    1460      583 10131227  2202608      305       24    12517      633
        3    93145     5683  8351593     3194       27    14992  5461306
       10     5652     2173        4  7046547       18       15   286181
      105   142572], ln_bot=[  13 1344  672  693   16], ln_top=[ 367 1344  672    1]
…
    (12): EmbeddingBag(3194, 16, mode=sum)
    (13): EmbeddingBag(27, 16, mode=sum)
    (14): EmbeddingBag(14992, 16, mode=sum)
    (15): EmbeddingBag(5461306, 16, mode=sum)
    (16): EmbeddingBag(10, 16, mode=sum)
    (17): EmbeddingBag(5652, 16, mode=sum)
    (18): EmbeddingBag(2173, 16, mode=sum)
    (19): EmbeddingBag(4, 16, mode=sum)
    (20): EmbeddingBag(7046547, 16, mode=sum)
    (21): EmbeddingBag(18, 16, mode=sum)
    (22): EmbeddingBag(15, 16, mode=sum)
    (23): EmbeddingBag(286181, 16, mode=sum)
    (24): EmbeddingBag(105, 16, mode=sum)
    (25): EmbeddingBag(142572, 16, mode=sum)
  )
  (bot_l): Sequential(
    (0): Linear(in_features=13, out_features=1344, bias=True)
    (1): ReLU()
    (2): Linear(in_features=1344, out_features=672, bias=True)
    (3): ReLU()
    (4): Linear(in_features=672, out_features=693, bias=True)
    (5): ReLU()
    (6): Linear(in_features=693, out_features=16, bias=True)
    (7): ReLU()
  )
  (top_l): Sequential(
    (0): Linear(in_features=367, out_features=1344, bias=True)
    (1): ReLU()
    (2): Linear(in_features=1344, out_features=672, bias=True)
    (3): ReLU()
    (4): Linear(in_features=672, out_features=1, bias=True)
    (5): Sigmoid()
  )
)
2020-11-06 11:51:58,860   Growth ID 20, Growing from 21X to 22X.....
2020-11-06 11:51:58,860   m_spa=16, ln_emb=[    1460      583 10131227  2202608      305       24    12517      633
        3    93145     5683  8351593     3194       27    14992  5461306
       10     5652     2173        4  7046547       18       15   286181
      105   142572], ln_bot=[  13 1408  704  726   16], ln_top=[ 367 1408  704    1]
…
    (12): EmbeddingBag(3194, 16, mode=sum)
    (13): EmbeddingBag(27, 16, mode=sum)
    (14): EmbeddingBag(14992, 16, mode=sum)
    (15): EmbeddingBag(5461306, 16, mode=sum)
    (16): EmbeddingBag(10, 16, mode=sum)
    (17): EmbeddingBag(5652, 16, mode=sum)
    (18): EmbeddingBag(2173, 16, mode=sum)
    (19): EmbeddingBag(4, 16, mode=sum)
    (20): EmbeddingBag(7046547, 16, mode=sum)
    (21): EmbeddingBag(18, 16, mode=sum)
    (22): EmbeddingBag(15, 16, mode=sum)
    (23): EmbeddingBag(286181, 16, mode=sum)
    (24): EmbeddingBag(105, 16, mode=sum)
    (25): EmbeddingBag(142572, 16, mode=sum)
  )
  (bot_l): Sequential(
    (0): Linear(in_features=13, out_features=1408, bias=True)
    (1): ReLU()
    (2): Linear(in_features=1408, out_features=704, bias=True)
    (3): ReLU()
    (4): Linear(in_features=704, out_features=726, bias=True)
    (5): ReLU()
    (6): Linear(in_features=726, out_features=16, bias=True)
    (7): ReLU()
  )
  (top_l): Sequential(
    (0): Linear(in_features=367, out_features=1408, bias=True)
    (1): ReLU()
    (2): Linear(in_features=1408, out_features=704, bias=True)
    (3): ReLU()
    (4): Linear(in_features=704, out_features=1, bias=True)
    (5): Sigmoid()
  )
)
2020-11-06 11:52:38,309   Growth ID 21, Growing from 22X to 23X.....
2020-11-06 11:52:38,309   m_spa=16, ln_emb=[    1460      583 10131227  2202608      305       24    12517      633
        3    93145     5683  8351593     3194       27    14992  5461306
       10     5652     2173        4  7046547       18       15   286181
      105   142572], ln_bot=[  13 1472  736  759   16], ln_top=[ 367 1472  736    1]
…
    (12): EmbeddingBag(3194, 16, mode=sum)
    (13): EmbeddingBag(27, 16, mode=sum)
    (14): EmbeddingBag(14992, 16, mode=sum)
    (15): EmbeddingBag(5461306, 16, mode=sum)
    (16): EmbeddingBag(10, 16, mode=sum)
    (17): EmbeddingBag(5652, 16, mode=sum)
    (18): EmbeddingBag(2173, 16, mode=sum)
    (19): EmbeddingBag(4, 16, mode=sum)
    (20): EmbeddingBag(7046547, 16, mode=sum)
    (21): EmbeddingBag(18, 16, mode=sum)
    (22): EmbeddingBag(15, 16, mode=sum)
    (23): EmbeddingBag(286181, 16, mode=sum)
    (24): EmbeddingBag(105, 16, mode=sum)
    (25): EmbeddingBag(142572, 16, mode=sum)
  )
  (bot_l): Sequential(
    (0): Linear(in_features=13, out_features=1472, bias=True)
    (1): ReLU()
    (2): Linear(in_features=1472, out_features=736, bias=True)
    (3): ReLU()
    (4): Linear(in_features=736, out_features=759, bias=True)
    (5): ReLU()
    (6): Linear(in_features=759, out_features=16, bias=True)
    (7): ReLU()
  )
  (top_l): Sequential(
    (0): Linear(in_features=367, out_features=1472, bias=True)
    (1): ReLU()
    (2): Linear(in_features=1472, out_features=736, bias=True)
    (3): ReLU()
    (4): Linear(in_features=736, out_features=1, bias=True)
    (5): Sigmoid()
  )
)
2020-11-06 11:53:16,806   Growth ID 22, Growing from 23X to 24X.....
2020-11-06 11:53:16,806   m_spa=16, ln_emb=[    1460      583 10131227  2202608      305       24    12517      633
        3    93145     5683  8351593     3194       27    14992  5461306
       10     5652     2173        4  7046547       18       15   286181
      105   142572], ln_bot=[  13 1536  768  792   16], ln_top=[ 367 1536  768    1]
…
    (12): EmbeddingBag(3194, 16, mode=sum)
    (13): EmbeddingBag(27, 16, mode=sum)
    (14): EmbeddingBag(14992, 16, mode=sum)
    (15): EmbeddingBag(5461306, 16, mode=sum)
    (16): EmbeddingBag(10, 16, mode=sum)
    (17): EmbeddingBag(5652, 16, mode=sum)
    (18): EmbeddingBag(2173, 16, mode=sum)
    (19): EmbeddingBag(4, 16, mode=sum)
    (20): EmbeddingBag(7046547, 16, mode=sum)
    (21): EmbeddingBag(18, 16, mode=sum)
    (22): EmbeddingBag(15, 16, mode=sum)
    (23): EmbeddingBag(286181, 16, mode=sum)
    (24): EmbeddingBag(105, 16, mode=sum)
    (25): EmbeddingBag(142572, 16, mode=sum)
  )
  (bot_l): Sequential(
    (0): Linear(in_features=13, out_features=1536, bias=True)
    (1): ReLU()
    (2): Linear(in_features=1536, out_features=768, bias=True)
    (3): ReLU()
    (4): Linear(in_features=768, out_features=792, bias=True)
    (5): ReLU()
    (6): Linear(in_features=792, out_features=16, bias=True)
    (7): ReLU()
  )
  (top_l): Sequential(
    (0): Linear(in_features=367, out_features=1536, bias=True)
    (1): ReLU()
    (2): Linear(in_features=1536, out_features=768, bias=True)
    (3): ReLU()
    (4): Linear(in_features=768, out_features=1, bias=True)
    (5): Sigmoid()
  )
)
2020-11-06 11:53:55,381   Growth ID 23, Growing from 24X to 25X.....
2020-11-06 11:53:55,382   m_spa=16, ln_emb=[    1460      583 10131227  2202608      305       24    12517      633
        3    93145     5683  8351593     3194       27    14992  5461306
       10     5652     2173        4  7046547       18       15   286181
      105   142572], ln_bot=[  13 1600  800  825   16], ln_top=[ 367 1600  800    1]
…
    (12): EmbeddingBag(3194, 16, mode=sum)
    (13): EmbeddingBag(27, 16, mode=sum)
    (14): EmbeddingBag(14992, 16, mode=sum)
    (15): EmbeddingBag(5461306, 16, mode=sum)
    (16): EmbeddingBag(10, 16, mode=sum)
    (17): EmbeddingBag(5652, 16, mode=sum)
    (18): EmbeddingBag(2173, 16, mode=sum)
    (19): EmbeddingBag(4, 16, mode=sum)
    (20): EmbeddingBag(7046547, 16, mode=sum)
    (21): EmbeddingBag(18, 16, mode=sum)
    (22): EmbeddingBag(15, 16, mode=sum)
    (23): EmbeddingBag(286181, 16, mode=sum)
    (24): EmbeddingBag(105, 16, mode=sum)
    (25): EmbeddingBag(142572, 16, mode=sum)
  )
  (bot_l): Sequential(
    (0): Linear(in_features=13, out_features=1600, bias=True)
    (1): ReLU()
    (2): Linear(in_features=1600, out_features=800, bias=True)
    (3): ReLU()
    (4): Linear(in_features=800, out_features=825, bias=True)
    (5): ReLU()
    (6): Linear(in_features=825, out_features=16, bias=True)
    (7): ReLU()
  )
  (top_l): Sequential(
    (0): Linear(in_features=367, out_features=1600, bias=True)
    (1): ReLU()
    (2): Linear(in_features=1600, out_features=800, bias=True)
    (3): ReLU()
    (4): Linear(in_features=800, out_features=1, bias=True)
    (5): Sigmoid()
  )
)
2020-11-06 11:54:32,529   Growth ID 24, Growing from 25X to 26X.....
2020-11-06 11:54:32,529   m_spa=16, ln_emb=[    1460      583 10131227  2202608      305       24    12517      633
        3    93145     5683  8351593     3194       27    14992  5461306
       10     5652     2173        4  7046547       18       15   286181
      105   142572], ln_bot=[  13 1664  832  858   16], ln_top=[ 367 1664  832    1]
…
    (12): EmbeddingBag(3194, 16, mode=sum)
    (13): EmbeddingBag(27, 16, mode=sum)
    (14): EmbeddingBag(14992, 16, mode=sum)
    (15): EmbeddingBag(5461306, 16, mode=sum)
    (16): EmbeddingBag(10, 16, mode=sum)
    (17): EmbeddingBag(5652, 16, mode=sum)
    (18): EmbeddingBag(2173, 16, mode=sum)
    (19): EmbeddingBag(4, 16, mode=sum)
    (20): EmbeddingBag(7046547, 16, mode=sum)
    (21): EmbeddingBag(18, 16, mode=sum)
    (22): EmbeddingBag(15, 16, mode=sum)
    (23): EmbeddingBag(286181, 16, mode=sum)
    (24): EmbeddingBag(105, 16, mode=sum)
    (25): EmbeddingBag(142572, 16, mode=sum)
  )
  (bot_l): Sequential(
    (0): Linear(in_features=13, out_features=1664, bias=True)
    (1): ReLU()
    (2): Linear(in_features=1664, out_features=832, bias=True)
    (3): ReLU()
    (4): Linear(in_features=832, out_features=858, bias=True)
    (5): ReLU()
    (6): Linear(in_features=858, out_features=16, bias=True)
    (7): ReLU()
  )
  (top_l): Sequential(
    (0): Linear(in_features=367, out_features=1664, bias=True)
    (1): ReLU()
    (2): Linear(in_features=1664, out_features=832, bias=True)
    (3): ReLU()
    (4): Linear(in_features=832, out_features=1, bias=True)
    (5): Sigmoid()
  )
)
2020-11-06 11:55:11,038   Growth ID 25, Growing from 26X to 27X.....
2020-11-06 11:55:11,039   m_spa=16, ln_emb=[    1460      583 10131227  2202608      305       24    12517      633
        3    93145     5683  8351593     3194       27    14992  5461306
       10     5652     2173        4  7046547       18       15   286181
      105   142572], ln_bot=[  13 1728  864  891   16], ln_top=[ 367 1728  864    1]
…
    (12): EmbeddingBag(3194, 16, mode=sum)
    (13): EmbeddingBag(27, 16, mode=sum)
    (14): EmbeddingBag(14992, 16, mode=sum)
    (15): EmbeddingBag(5461306, 16, mode=sum)
    (16): EmbeddingBag(10, 16, mode=sum)
    (17): EmbeddingBag(5652, 16, mode=sum)
    (18): EmbeddingBag(2173, 16, mode=sum)
    (19): EmbeddingBag(4, 16, mode=sum)
    (20): EmbeddingBag(7046547, 16, mode=sum)
    (21): EmbeddingBag(18, 16, mode=sum)
    (22): EmbeddingBag(15, 16, mode=sum)
    (23): EmbeddingBag(286181, 16, mode=sum)
    (24): EmbeddingBag(105, 16, mode=sum)
    (25): EmbeddingBag(142572, 16, mode=sum)
  )
  (bot_l): Sequential(
    (0): Linear(in_features=13, out_features=1728, bias=True)
    (1): ReLU()
    (2): Linear(in_features=1728, out_features=864, bias=True)
    (3): ReLU()
    (4): Linear(in_features=864, out_features=891, bias=True)
    (5): ReLU()
    (6): Linear(in_features=891, out_features=16, bias=True)
    (7): ReLU()
  )
  (top_l): Sequential(
    (0): Linear(in_features=367, out_features=1728, bias=True)
    (1): ReLU()
    (2): Linear(in_features=1728, out_features=864, bias=True)
    (3): ReLU()
    (4): Linear(in_features=864, out_features=1, bias=True)
    (5): Sigmoid()
  )
)
2020-11-06 11:57:23,783   Growth ID 26, Growing from 27X to 28X.....
2020-11-06 11:57:23,783   m_spa=16, ln_emb=[    1460      583 10131227  2202608      305       24    12517      633
        3    93145     5683  8351593     3194       27    14992  5461306
       10     5652     2173        4  7046547       18       15   286181
      105   142572], ln_bot=[  13 1792  896  924   16], ln_top=[ 367 1792  896    1]
…
    (12): EmbeddingBag(3194, 16, mode=sum)
    (13): EmbeddingBag(27, 16, mode=sum)
    (14): EmbeddingBag(14992, 16, mode=sum)
    (15): EmbeddingBag(5461306, 16, mode=sum)
    (16): EmbeddingBag(10, 16, mode=sum)
    (17): EmbeddingBag(5652, 16, mode=sum)
    (18): EmbeddingBag(2173, 16, mode=sum)
    (19): EmbeddingBag(4, 16, mode=sum)
    (20): EmbeddingBag(7046547, 16, mode=sum)
    (21): EmbeddingBag(18, 16, mode=sum)
    (22): EmbeddingBag(15, 16, mode=sum)
    (23): EmbeddingBag(286181, 16, mode=sum)
    (24): EmbeddingBag(105, 16, mode=sum)
    (25): EmbeddingBag(142572, 16, mode=sum)
  )
  (bot_l): Sequential(
    (0): Linear(in_features=13, out_features=1792, bias=True)
    (1): ReLU()
    (2): Linear(in_features=1792, out_features=896, bias=True)
    (3): ReLU()
    (4): Linear(in_features=896, out_features=924, bias=True)
    (5): ReLU()
    (6): Linear(in_features=924, out_features=16, bias=True)
    (7): ReLU()
  )
  (top_l): Sequential(
    (0): Linear(in_features=367, out_features=1792, bias=True)
    (1): ReLU()
    (2): Linear(in_features=1792, out_features=896, bias=True)
    (3): ReLU()
    (4): Linear(in_features=896, out_features=1, bias=True)
    (5): Sigmoid()
  )
)
2020-11-06 11:58:02,444   Growth ID 27, Growing from 28X to 29X.....
2020-11-06 11:58:02,445   m_spa=16, ln_emb=[    1460      583 10131227  2202608      305       24    12517      633
        3    93145     5683  8351593     3194       27    14992  5461306
       10     5652     2173        4  7046547       18       15   286181
      105   142572], ln_bot=[  13 1856  928  957   16], ln_top=[ 367 1856  928    1]
…
    (12): EmbeddingBag(3194, 16, mode=sum)
    (13): EmbeddingBag(27, 16, mode=sum)
    (14): EmbeddingBag(14992, 16, mode=sum)
    (15): EmbeddingBag(5461306, 16, mode=sum)
    (16): EmbeddingBag(10, 16, mode=sum)
    (17): EmbeddingBag(5652, 16, mode=sum)
    (18): EmbeddingBag(2173, 16, mode=sum)
    (19): EmbeddingBag(4, 16, mode=sum)
    (20): EmbeddingBag(7046547, 16, mode=sum)
    (21): EmbeddingBag(18, 16, mode=sum)
    (22): EmbeddingBag(15, 16, mode=sum)
    (23): EmbeddingBag(286181, 16, mode=sum)
    (24): EmbeddingBag(105, 16, mode=sum)
    (25): EmbeddingBag(142572, 16, mode=sum)
  )
  (bot_l): Sequential(
    (0): Linear(in_features=13, out_features=1856, bias=True)
    (1): ReLU()
    (2): Linear(in_features=1856, out_features=928, bias=True)
    (3): ReLU()
    (4): Linear(in_features=928, out_features=957, bias=True)
    (5): ReLU()
    (6): Linear(in_features=957, out_features=16, bias=True)
    (7): ReLU()
  )
  (top_l): Sequential(
    (0): Linear(in_features=367, out_features=1856, bias=True)
    (1): ReLU()
    (2): Linear(in_features=1856, out_features=928, bias=True)
    (3): ReLU()
    (4): Linear(in_features=928, out_features=1, bias=True)
    (5): Sigmoid()
  )
)
2020-11-06 11:58:40,359   Growth ID 28, Growing from 29X to 30X.....
2020-11-06 11:58:40,359   m_spa=16, ln_emb=[    1460      583 10131227  2202608      305       24    12517      633
        3    93145     5683  8351593     3194       27    14992  5461306
       10     5652     2173        4  7046547       18       15   286181
      105   142572], ln_bot=[  13 1920  960  990   16], ln_top=[ 367 1920  960    1]
…
    (12): EmbeddingBag(3194, 16, mode=sum)
    (13): EmbeddingBag(27, 16, mode=sum)
    (14): EmbeddingBag(14992, 16, mode=sum)
    (15): EmbeddingBag(5461306, 16, mode=sum)
    (16): EmbeddingBag(10, 16, mode=sum)
    (17): EmbeddingBag(5652, 16, mode=sum)
    (18): EmbeddingBag(2173, 16, mode=sum)
    (19): EmbeddingBag(4, 16, mode=sum)
    (20): EmbeddingBag(7046547, 16, mode=sum)
    (21): EmbeddingBag(18, 16, mode=sum)
    (22): EmbeddingBag(15, 16, mode=sum)
    (23): EmbeddingBag(286181, 16, mode=sum)
    (24): EmbeddingBag(105, 16, mode=sum)
    (25): EmbeddingBag(142572, 16, mode=sum)
  )
  (bot_l): Sequential(
    (0): Linear(in_features=13, out_features=1920, bias=True)
    (1): ReLU()
    (2): Linear(in_features=1920, out_features=960, bias=True)
    (3): ReLU()
    (4): Linear(in_features=960, out_features=990, bias=True)
    (5): ReLU()
    (6): Linear(in_features=990, out_features=16, bias=True)
    (7): ReLU()
  )
  (top_l): Sequential(
    (0): Linear(in_features=367, out_features=1920, bias=True)
    (1): ReLU()
    (2): Linear(in_features=1920, out_features=960, bias=True)
    (3): ReLU()
    (4): Linear(in_features=960, out_features=1, bias=True)
    (5): Sigmoid()
  )
)
2020-11-06 11:59:19,313   Growth ID 29, Growing from 30X to 31X.....
2020-11-06 11:59:19,313   m_spa=16, ln_emb=[    1460      583 10131227  2202608      305       24    12517      633
        3    93145     5683  8351593     3194       27    14992  5461306
       10     5652     2173        4  7046547       18       15   286181
      105   142572], ln_bot=[  13 1984  992 1023   16], ln_top=[ 367 1984  992    1]
…
    (12): EmbeddingBag(3194, 16, mode=sum)
    (13): EmbeddingBag(27, 16, mode=sum)
    (14): EmbeddingBag(14992, 16, mode=sum)
    (15): EmbeddingBag(5461306, 16, mode=sum)
    (16): EmbeddingBag(10, 16, mode=sum)
    (17): EmbeddingBag(5652, 16, mode=sum)
    (18): EmbeddingBag(2173, 16, mode=sum)
    (19): EmbeddingBag(4, 16, mode=sum)
    (20): EmbeddingBag(7046547, 16, mode=sum)
    (21): EmbeddingBag(18, 16, mode=sum)
    (22): EmbeddingBag(15, 16, mode=sum)
    (23): EmbeddingBag(286181, 16, mode=sum)
    (24): EmbeddingBag(105, 16, mode=sum)
    (25): EmbeddingBag(142572, 16, mode=sum)
  )
  (bot_l): Sequential(
    (0): Linear(in_features=13, out_features=1984, bias=True)
    (1): ReLU()
    (2): Linear(in_features=1984, out_features=992, bias=True)
    (3): ReLU()
    (4): Linear(in_features=992, out_features=1023, bias=True)
    (5): ReLU()
    (6): Linear(in_features=1023, out_features=16, bias=True)
    (7): ReLU()
  )
  (top_l): Sequential(
    (0): Linear(in_features=367, out_features=1984, bias=True)
    (1): ReLU()
    (2): Linear(in_features=1984, out_features=992, bias=True)
    (3): ReLU()
    (4): Linear(in_features=992, out_features=1, bias=True)
    (5): Sigmoid()
  )
)
2020-11-06 11:59:56,231   Growth ID 30, Growing from 31X to 32X.....
2020-11-06 11:59:56,231   m_spa=16, ln_emb=[    1460      583 10131227  2202608      305       24    12517      633
        3    93145     5683  8351593     3194       27    14992  5461306
       10     5652     2173        4  7046547       18       15   286181
      105   142572], ln_bot=[  13 2048 1024 1056   16], ln_top=[ 367 2048 1024    1]
…
    (12): EmbeddingBag(3194, 16, mode=sum)
    (13): EmbeddingBag(27, 16, mode=sum)
    (14): EmbeddingBag(14992, 16, mode=sum)
    (15): EmbeddingBag(5461306, 16, mode=sum)
    (16): EmbeddingBag(10, 16, mode=sum)
    (17): EmbeddingBag(5652, 16, mode=sum)
    (18): EmbeddingBag(2173, 16, mode=sum)
    (19): EmbeddingBag(4, 16, mode=sum)
    (20): EmbeddingBag(7046547, 16, mode=sum)
    (21): EmbeddingBag(18, 16, mode=sum)
    (22): EmbeddingBag(15, 16, mode=sum)
    (23): EmbeddingBag(286181, 16, mode=sum)
    (24): EmbeddingBag(105, 16, mode=sum)
    (25): EmbeddingBag(142572, 16, mode=sum)
  )
  (bot_l): Sequential(
    (0): Linear(in_features=13, out_features=2048, bias=True)
    (1): ReLU()
    (2): Linear(in_features=2048, out_features=1024, bias=True)
    (3): ReLU()
    (4): Linear(in_features=1024, out_features=1056, bias=True)
    (5): ReLU()
    (6): Linear(in_features=1056, out_features=16, bias=True)
    (7): ReLU()
  )
  (top_l): Sequential(
    (0): Linear(in_features=367, out_features=2048, bias=True)
    (1): ReLU()
    (2): Linear(in_features=2048, out_features=1024, bias=True)
    (3): ReLU()
    (4): Linear(in_features=1024, out_features=1, bias=True)
    (5): Sigmoid()
  )
)
2020-11-06 12:00:34,817   Growth ID 31, Growing from 32X to 33X.....
2020-11-06 12:00:34,817   m_spa=16, ln_emb=[    1460      583 10131227  2202608      305       24    12517      633
        3    93145     5683  8351593     3194       27    14992  5461306
       10     5652     2173        4  7046547       18       15   286181
…
    (12): EmbeddingBag(3194, 16, mode=sum)
    (13): EmbeddingBag(27, 16, mode=sum)
    (14): EmbeddingBag(14992, 16, mode=sum)
    (15): EmbeddingBag(5461306, 16, mode=sum)
    (16): EmbeddingBag(10, 16, mode=sum)
    (17): EmbeddingBag(5652, 16, mode=sum)
    (18): EmbeddingBag(2173, 16, mode=sum)
    (19): EmbeddingBag(4, 16, mode=sum)
    (20): EmbeddingBag(7046547, 16, mode=sum)
    (21): EmbeddingBag(18, 16, mode=sum)
    (22): EmbeddingBag(15, 16, mode=sum)
    (23): EmbeddingBag(286181, 16, mode=sum)
    (24): EmbeddingBag(105, 16, mode=sum)
    (25): EmbeddingBag(142572, 16, mode=sum)
  )
  (bot_l): Sequential(
    (0): Linear(in_features=13, out_features=2112, bias=True)
    (1): ReLU()
    (2): Linear(in_features=2112, out_features=1056, bias=True)
    (3): ReLU()
    (4): Linear(in_features=1056, out_features=1089, bias=True)
    (5): ReLU()
    (6): Linear(in_features=1089, out_features=16, bias=True)
    (7): ReLU()
  )
  (top_l): Sequential(
    (0): Linear(in_features=367, out_features=2112, bias=True)
    (1): ReLU()
    (2): Linear(in_features=2112, out_features=1056, bias=True)
    (3): ReLU()
    (4): Linear(in_features=1056, out_features=1, bias=True)
    (5): Sigmoid()
  )
)
2020-11-06 12:01:12,377   Growth ID 32, Growing from 33X to 34X.....
2020-11-06 12:01:12,378   m_spa=16, ln_emb=[    1460      583 10131227  2202608      305       24    12517      633
        3    93145     5683  8351593     3194       27    14992  5461306
       10     5652     2173        4  7046547       18       15   286181
…
    (12): EmbeddingBag(3194, 16, mode=sum)
    (13): EmbeddingBag(27, 16, mode=sum)
    (14): EmbeddingBag(14992, 16, mode=sum)
    (15): EmbeddingBag(5461306, 16, mode=sum)
    (16): EmbeddingBag(10, 16, mode=sum)
    (17): EmbeddingBag(5652, 16, mode=sum)
    (18): EmbeddingBag(2173, 16, mode=sum)
    (19): EmbeddingBag(4, 16, mode=sum)
    (20): EmbeddingBag(7046547, 16, mode=sum)
    (21): EmbeddingBag(18, 16, mode=sum)
    (22): EmbeddingBag(15, 16, mode=sum)
    (23): EmbeddingBag(286181, 16, mode=sum)
    (24): EmbeddingBag(105, 16, mode=sum)
    (25): EmbeddingBag(142572, 16, mode=sum)
  )
  (bot_l): Sequential(
    (0): Linear(in_features=13, out_features=2176, bias=True)
    (1): ReLU()
    (2): Linear(in_features=2176, out_features=1088, bias=True)
    (3): ReLU()
    (4): Linear(in_features=1088, out_features=1122, bias=True)
    (5): ReLU()
    (6): Linear(in_features=1122, out_features=16, bias=True)
    (7): ReLU()
  )
  (top_l): Sequential(
    (0): Linear(in_features=367, out_features=2176, bias=True)
    (1): ReLU()
    (2): Linear(in_features=2176, out_features=1088, bias=True)
    (3): ReLU()
    (4): Linear(in_features=1088, out_features=1, bias=True)
    (5): Sigmoid()
  )
)
2020-11-06 12:01:51,171   Growth ID 33, Growing from 34X to 35X.....
2020-11-06 12:01:51,171   m_spa=16, ln_emb=[    1460      583 10131227  2202608      305       24    12517      633
        3    93145     5683  8351593     3194       27    14992  5461306
       10     5652     2173        4  7046547       18       15   286181
…
    (12): EmbeddingBag(3194, 16, mode=sum)
    (13): EmbeddingBag(27, 16, mode=sum)
    (14): EmbeddingBag(14992, 16, mode=sum)
    (15): EmbeddingBag(5461306, 16, mode=sum)
    (16): EmbeddingBag(10, 16, mode=sum)
    (17): EmbeddingBag(5652, 16, mode=sum)
    (18): EmbeddingBag(2173, 16, mode=sum)
    (19): EmbeddingBag(4, 16, mode=sum)
    (20): EmbeddingBag(7046547, 16, mode=sum)
    (21): EmbeddingBag(18, 16, mode=sum)
    (22): EmbeddingBag(15, 16, mode=sum)
    (23): EmbeddingBag(286181, 16, mode=sum)
    (24): EmbeddingBag(105, 16, mode=sum)
    (25): EmbeddingBag(142572, 16, mode=sum)
  )
  (bot_l): Sequential(
    (0): Linear(in_features=13, out_features=2240, bias=True)
    (1): ReLU()
    (2): Linear(in_features=2240, out_features=1120, bias=True)
    (3): ReLU()
    (4): Linear(in_features=1120, out_features=1155, bias=True)
    (5): ReLU()
    (6): Linear(in_features=1155, out_features=16, bias=True)
    (7): ReLU()
  )
  (top_l): Sequential(
    (0): Linear(in_features=367, out_features=2240, bias=True)
    (1): ReLU()
    (2): Linear(in_features=2240, out_features=1120, bias=True)
    (3): ReLU()
    (4): Linear(in_features=1120, out_features=1, bias=True)
    (5): Sigmoid()
  )
)
2020-11-06 12:02:29,632   Growth ID 34, Growing from 35X to 36X.....
2020-11-06 12:02:29,633   m_spa=16, ln_emb=[    1460      583 10131227  2202608      305       24    12517      633
        3    93145     5683  8351593     3194       27    14992  5461306
       10     5652     2173        4  7046547       18       15   286181
…
    (12): EmbeddingBag(3194, 16, mode=sum)
    (13): EmbeddingBag(27, 16, mode=sum)
    (14): EmbeddingBag(14992, 16, mode=sum)
    (15): EmbeddingBag(5461306, 16, mode=sum)
    (16): EmbeddingBag(10, 16, mode=sum)
    (17): EmbeddingBag(5652, 16, mode=sum)
    (18): EmbeddingBag(2173, 16, mode=sum)
    (19): EmbeddingBag(4, 16, mode=sum)
    (20): EmbeddingBag(7046547, 16, mode=sum)
    (21): EmbeddingBag(18, 16, mode=sum)
    (22): EmbeddingBag(15, 16, mode=sum)
    (23): EmbeddingBag(286181, 16, mode=sum)
    (24): EmbeddingBag(105, 16, mode=sum)
    (25): EmbeddingBag(142572, 16, mode=sum)
  )
  (bot_l): Sequential(
    (0): Linear(in_features=13, out_features=2304, bias=True)
    (1): ReLU()
    (2): Linear(in_features=2304, out_features=1152, bias=True)
    (3): ReLU()
    (4): Linear(in_features=1152, out_features=1188, bias=True)
    (5): ReLU()
    (6): Linear(in_features=1188, out_features=16, bias=True)
    (7): ReLU()
  )
  (top_l): Sequential(
    (0): Linear(in_features=367, out_features=2304, bias=True)
    (1): ReLU()
    (2): Linear(in_features=2304, out_features=1152, bias=True)
    (3): ReLU()
    (4): Linear(in_features=1152, out_features=1, bias=True)
    (5): Sigmoid()
  )
)
2020-11-06 12:03:08,116   Growth ID 35, Growing from 36X to 37X.....
2020-11-06 12:03:08,116   m_spa=16, ln_emb=[    1460      583 10131227  2202608      305       24    12517      633
        3    93145     5683  8351593     3194       27    14992  5461306
       10     5652     2173        4  7046547       18       15   286181
…
    (12): EmbeddingBag(3194, 16, mode=sum)
    (13): EmbeddingBag(27, 16, mode=sum)
    (14): EmbeddingBag(14992, 16, mode=sum)
    (15): EmbeddingBag(5461306, 16, mode=sum)
    (16): EmbeddingBag(10, 16, mode=sum)
    (17): EmbeddingBag(5652, 16, mode=sum)
    (18): EmbeddingBag(2173, 16, mode=sum)
    (19): EmbeddingBag(4, 16, mode=sum)
    (20): EmbeddingBag(7046547, 16, mode=sum)
    (21): EmbeddingBag(18, 16, mode=sum)
    (22): EmbeddingBag(15, 16, mode=sum)
    (23): EmbeddingBag(286181, 16, mode=sum)
    (24): EmbeddingBag(105, 16, mode=sum)
    (25): EmbeddingBag(142572, 16, mode=sum)
  )
  (bot_l): Sequential(
    (0): Linear(in_features=13, out_features=2368, bias=True)
    (1): ReLU()
    (2): Linear(in_features=2368, out_features=1184, bias=True)
    (3): ReLU()
    (4): Linear(in_features=1184, out_features=1221, bias=True)
    (5): ReLU()
    (6): Linear(in_features=1221, out_features=16, bias=True)
    (7): ReLU()
  )
  (top_l): Sequential(
    (0): Linear(in_features=367, out_features=2368, bias=True)
    (1): ReLU()
    (2): Linear(in_features=2368, out_features=1184, bias=True)
    (3): ReLU()
    (4): Linear(in_features=1184, out_features=1, bias=True)
    (5): Sigmoid()
  )
)
2020-11-06 12:03:47,011   Growth ID 36, Growing from 37X to 38X.....
2020-11-06 12:03:47,012   m_spa=16, ln_emb=[    1460      583 10131227  2202608      305       24    12517      633
        3    93145     5683  8351593     3194       27    14992  5461306
       10     5652     2173        4  7046547       18       15   286181
…
    (12): EmbeddingBag(3194, 16, mode=sum)
    (13): EmbeddingBag(27, 16, mode=sum)
    (14): EmbeddingBag(14992, 16, mode=sum)
    (15): EmbeddingBag(5461306, 16, mode=sum)
    (16): EmbeddingBag(10, 16, mode=sum)
    (17): EmbeddingBag(5652, 16, mode=sum)
    (18): EmbeddingBag(2173, 16, mode=sum)
    (19): EmbeddingBag(4, 16, mode=sum)
    (20): EmbeddingBag(7046547, 16, mode=sum)
    (21): EmbeddingBag(18, 16, mode=sum)
    (22): EmbeddingBag(15, 16, mode=sum)
    (23): EmbeddingBag(286181, 16, mode=sum)
    (24): EmbeddingBag(105, 16, mode=sum)
    (25): EmbeddingBag(142572, 16, mode=sum)
  )
  (bot_l): Sequential(
    (0): Linear(in_features=13, out_features=2432, bias=True)
    (1): ReLU()
    (2): Linear(in_features=2432, out_features=1216, bias=True)
    (3): ReLU()
    (4): Linear(in_features=1216, out_features=1254, bias=True)
    (5): ReLU()
    (6): Linear(in_features=1254, out_features=16, bias=True)
    (7): ReLU()
  )
  (top_l): Sequential(
    (0): Linear(in_features=367, out_features=2432, bias=True)
    (1): ReLU()
    (2): Linear(in_features=2432, out_features=1216, bias=True)
    (3): ReLU()
    (4): Linear(in_features=1216, out_features=1, bias=True)
    (5): Sigmoid()
  )
)
2020-11-06 12:04:27,117   Growth ID 37, Growing from 38X to 39X.....
2020-11-06 12:04:27,117   m_spa=16, ln_emb=[    1460      583 10131227  2202608      305       24    12517      633
        3    93145     5683  8351593     3194       27    14992  5461306
       10     5652     2173        4  7046547       18       15   286181
…
    (12): EmbeddingBag(3194, 16, mode=sum)
    (13): EmbeddingBag(27, 16, mode=sum)
    (14): EmbeddingBag(14992, 16, mode=sum)
    (15): EmbeddingBag(5461306, 16, mode=sum)
    (16): EmbeddingBag(10, 16, mode=sum)
    (17): EmbeddingBag(5652, 16, mode=sum)
    (18): EmbeddingBag(2173, 16, mode=sum)
    (19): EmbeddingBag(4, 16, mode=sum)
    (20): EmbeddingBag(7046547, 16, mode=sum)
    (21): EmbeddingBag(18, 16, mode=sum)
    (22): EmbeddingBag(15, 16, mode=sum)
    (23): EmbeddingBag(286181, 16, mode=sum)
    (24): EmbeddingBag(105, 16, mode=sum)
    (25): EmbeddingBag(142572, 16, mode=sum)
  )
  (bot_l): Sequential(
    (0): Linear(in_features=13, out_features=2496, bias=True)
    (1): ReLU()
    (2): Linear(in_features=2496, out_features=1248, bias=True)
    (3): ReLU()
    (4): Linear(in_features=1248, out_features=1287, bias=True)
    (5): ReLU()
    (6): Linear(in_features=1287, out_features=16, bias=True)
    (7): ReLU()
  )
  (top_l): Sequential(
    (0): Linear(in_features=367, out_features=2496, bias=True)
    (1): ReLU()
    (2): Linear(in_features=2496, out_features=1248, bias=True)
    (3): ReLU()
    (4): Linear(in_features=1248, out_features=1, bias=True)
    (5): Sigmoid()
  )
)
2020-11-06 12:05:03,795   Growth ID 38, Growing from 39X to 40X.....
2020-11-06 12:05:03,795   m_spa=16, ln_emb=[    1460      583 10131227  2202608      305       24    12517      633
        3    93145     5683  8351593     3194       27    14992  5461306
       10     5652     2173        4  7046547       18       15   286181
…
    (12): EmbeddingBag(3194, 16, mode=sum)
    (13): EmbeddingBag(27, 16, mode=sum)
    (14): EmbeddingBag(14992, 16, mode=sum)
    (15): EmbeddingBag(5461306, 16, mode=sum)
    (16): EmbeddingBag(10, 16, mode=sum)
    (17): EmbeddingBag(5652, 16, mode=sum)
    (18): EmbeddingBag(2173, 16, mode=sum)
    (19): EmbeddingBag(4, 16, mode=sum)
    (20): EmbeddingBag(7046547, 16, mode=sum)
    (21): EmbeddingBag(18, 16, mode=sum)
    (22): EmbeddingBag(15, 16, mode=sum)
    (23): EmbeddingBag(286181, 16, mode=sum)
    (24): EmbeddingBag(105, 16, mode=sum)
    (25): EmbeddingBag(142572, 16, mode=sum)
  )
  (bot_l): Sequential(
    (0): Linear(in_features=13, out_features=2560, bias=True)
    (1): ReLU()
    (2): Linear(in_features=2560, out_features=1280, bias=True)
    (3): ReLU()
    (4): Linear(in_features=1280, out_features=1320, bias=True)
    (5): ReLU()
    (6): Linear(in_features=1320, out_features=16, bias=True)
    (7): ReLU()
  )
  (top_l): Sequential(
    (0): Linear(in_features=367, out_features=2560, bias=True)
    (1): ReLU()
    (2): Linear(in_features=2560, out_features=1280, bias=True)
    (3): ReLU()
    (4): Linear(in_features=1280, out_features=1, bias=True)
    (5): Sigmoid()
  )
)
2020-11-06 12:05:42,930   Growth ID 39, Growing from 40X to 41X.....
2020-11-06 12:05:42,931   m_spa=16, ln_emb=[    1460      583 10131227  2202608      305       24    12517      633
        3    93145     5683  8351593     3194       27    14992  5461306
       10     5652     2173        4  7046547       18       15   286181
…
    (12): EmbeddingBag(3194, 16, mode=sum)
    (13): EmbeddingBag(27, 16, mode=sum)
    (14): EmbeddingBag(14992, 16, mode=sum)
    (15): EmbeddingBag(5461306, 16, mode=sum)
    (16): EmbeddingBag(10, 16, mode=sum)
    (17): EmbeddingBag(5652, 16, mode=sum)
    (18): EmbeddingBag(2173, 16, mode=sum)
    (19): EmbeddingBag(4, 16, mode=sum)
    (20): EmbeddingBag(7046547, 16, mode=sum)
    (21): EmbeddingBag(18, 16, mode=sum)
    (22): EmbeddingBag(15, 16, mode=sum)
    (23): EmbeddingBag(286181, 16, mode=sum)
    (24): EmbeddingBag(105, 16, mode=sum)
    (25): EmbeddingBag(142572, 16, mode=sum)
  )
  (bot_l): Sequential(
    (0): Linear(in_features=13, out_features=2624, bias=True)
    (1): ReLU()
    (2): Linear(in_features=2624, out_features=1312, bias=True)
    (3): ReLU()
    (4): Linear(in_features=1312, out_features=1353, bias=True)
    (5): ReLU()
    (6): Linear(in_features=1353, out_features=16, bias=True)
    (7): ReLU()
  )
  (top_l): Sequential(
    (0): Linear(in_features=367, out_features=2624, bias=True)
    (1): ReLU()
    (2): Linear(in_features=2624, out_features=1312, bias=True)
    (3): ReLU()
    (4): Linear(in_features=1312, out_features=1, bias=True)
    (5): Sigmoid()
  )
)
2020-11-06 12:06:21,970   Growth ID 40, Growing from 41X to 42X.....
2020-11-06 12:06:21,971   m_spa=16, ln_emb=[    1460      583 10131227  2202608      305       24    12517      633
        3    93145     5683  8351593     3194       27    14992  5461306
       10     5652     2173        4  7046547       18       15   286181
…
    (12): EmbeddingBag(3194, 16, mode=sum)
    (13): EmbeddingBag(27, 16, mode=sum)
    (14): EmbeddingBag(14992, 16, mode=sum)
    (15): EmbeddingBag(5461306, 16, mode=sum)
    (16): EmbeddingBag(10, 16, mode=sum)
    (17): EmbeddingBag(5652, 16, mode=sum)
    (18): EmbeddingBag(2173, 16, mode=sum)
    (19): EmbeddingBag(4, 16, mode=sum)
    (20): EmbeddingBag(7046547, 16, mode=sum)
    (21): EmbeddingBag(18, 16, mode=sum)
    (22): EmbeddingBag(15, 16, mode=sum)
    (23): EmbeddingBag(286181, 16, mode=sum)
    (24): EmbeddingBag(105, 16, mode=sum)
    (25): EmbeddingBag(142572, 16, mode=sum)
  )
  (bot_l): Sequential(
    (0): Linear(in_features=13, out_features=2688, bias=True)
    (1): ReLU()
    (2): Linear(in_features=2688, out_features=1344, bias=True)
    (3): ReLU()
    (4): Linear(in_features=1344, out_features=1386, bias=True)
    (5): ReLU()
    (6): Linear(in_features=1386, out_features=16, bias=True)
    (7): ReLU()
  )
  (top_l): Sequential(
    (0): Linear(in_features=367, out_features=2688, bias=True)
    (1): ReLU()
    (2): Linear(in_features=2688, out_features=1344, bias=True)
    (3): ReLU()
    (4): Linear(in_features=1344, out_features=1, bias=True)
    (5): Sigmoid()
  )
)
2020-11-06 12:07:01,406   Growth ID 41, Growing from 42X to 43X.....
2020-11-06 12:07:01,406   m_spa=16, ln_emb=[    1460      583 10131227  2202608      305       24    12517      633
        3    93145     5683  8351593     3194       27    14992  5461306
       10     5652     2173        4  7046547       18       15   286181
…
    (12): EmbeddingBag(3194, 16, mode=sum)
    (13): EmbeddingBag(27, 16, mode=sum)
    (14): EmbeddingBag(14992, 16, mode=sum)
    (15): EmbeddingBag(5461306, 16, mode=sum)
    (16): EmbeddingBag(10, 16, mode=sum)
    (17): EmbeddingBag(5652, 16, mode=sum)
    (18): EmbeddingBag(2173, 16, mode=sum)
    (19): EmbeddingBag(4, 16, mode=sum)
    (20): EmbeddingBag(7046547, 16, mode=sum)
    (21): EmbeddingBag(18, 16, mode=sum)
    (22): EmbeddingBag(15, 16, mode=sum)
    (23): EmbeddingBag(286181, 16, mode=sum)
    (24): EmbeddingBag(105, 16, mode=sum)
    (25): EmbeddingBag(142572, 16, mode=sum)
  )
  (bot_l): Sequential(
    (0): Linear(in_features=13, out_features=2752, bias=True)
    (1): ReLU()
    (2): Linear(in_features=2752, out_features=1376, bias=True)
    (3): ReLU()
    (4): Linear(in_features=1376, out_features=1419, bias=True)
    (5): ReLU()
    (6): Linear(in_features=1419, out_features=16, bias=True)
    (7): ReLU()
  )
  (top_l): Sequential(
    (0): Linear(in_features=367, out_features=2752, bias=True)
    (1): ReLU()
    (2): Linear(in_features=2752, out_features=1376, bias=True)
    (3): ReLU()
    (4): Linear(in_features=1376, out_features=1, bias=True)
    (5): Sigmoid()
  )
)
2020-11-06 12:07:39,935   Growth ID 42, Growing from 43X to 44X.....
2020-11-06 12:07:39,936   m_spa=16, ln_emb=[    1460      583 10131227  2202608      305       24    12517      633
        3    93145     5683  8351593     3194       27    14992  5461306
       10     5652     2173        4  7046547       18       15   286181
…
    (12): EmbeddingBag(3194, 16, mode=sum)
    (13): EmbeddingBag(27, 16, mode=sum)
    (14): EmbeddingBag(14992, 16, mode=sum)
    (15): EmbeddingBag(5461306, 16, mode=sum)
    (16): EmbeddingBag(10, 16, mode=sum)
    (17): EmbeddingBag(5652, 16, mode=sum)
    (18): EmbeddingBag(2173, 16, mode=sum)
    (19): EmbeddingBag(4, 16, mode=sum)
    (20): EmbeddingBag(7046547, 16, mode=sum)
    (21): EmbeddingBag(18, 16, mode=sum)
    (22): EmbeddingBag(15, 16, mode=sum)
    (23): EmbeddingBag(286181, 16, mode=sum)
    (24): EmbeddingBag(105, 16, mode=sum)
    (25): EmbeddingBag(142572, 16, mode=sum)
  )
  (bot_l): Sequential(
    (0): Linear(in_features=13, out_features=2816, bias=True)
    (1): ReLU()
    (2): Linear(in_features=2816, out_features=1408, bias=True)
    (3): ReLU()
    (4): Linear(in_features=1408, out_features=1452, bias=True)
    (5): ReLU()
    (6): Linear(in_features=1452, out_features=16, bias=True)
    (7): ReLU()
  )
  (top_l): Sequential(
    (0): Linear(in_features=367, out_features=2816, bias=True)
    (1): ReLU()
    (2): Linear(in_features=2816, out_features=1408, bias=True)
    (3): ReLU()
    (4): Linear(in_features=1408, out_features=1, bias=True)
    (5): Sigmoid()
  )
)
2020-11-06 12:08:18,811   Growth ID 43, Growing from 44X to 45X.....
2020-11-06 12:08:18,812   m_spa=16, ln_emb=[    1460      583 10131227  2202608      305       24    12517      633
        3    93145     5683  8351593     3194       27    14992  5461306
       10     5652     2173        4  7046547       18       15   286181
…
    (12): EmbeddingBag(3194, 16, mode=sum)
    (13): EmbeddingBag(27, 16, mode=sum)
    (14): EmbeddingBag(14992, 16, mode=sum)
    (15): EmbeddingBag(5461306, 16, mode=sum)
    (16): EmbeddingBag(10, 16, mode=sum)
    (17): EmbeddingBag(5652, 16, mode=sum)
    (18): EmbeddingBag(2173, 16, mode=sum)
    (19): EmbeddingBag(4, 16, mode=sum)
    (20): EmbeddingBag(7046547, 16, mode=sum)
    (21): EmbeddingBag(18, 16, mode=sum)
    (22): EmbeddingBag(15, 16, mode=sum)
    (23): EmbeddingBag(286181, 16, mode=sum)
    (24): EmbeddingBag(105, 16, mode=sum)
    (25): EmbeddingBag(142572, 16, mode=sum)
  )
  (bot_l): Sequential(
    (0): Linear(in_features=13, out_features=2880, bias=True)
    (1): ReLU()
    (2): Linear(in_features=2880, out_features=1440, bias=True)
    (3): ReLU()
    (4): Linear(in_features=1440, out_features=1485, bias=True)
    (5): ReLU()
    (6): Linear(in_features=1485, out_features=16, bias=True)
    (7): ReLU()
  )
  (top_l): Sequential(
    (0): Linear(in_features=367, out_features=2880, bias=True)
    (1): ReLU()
    (2): Linear(in_features=2880, out_features=1440, bias=True)
    (3): ReLU()
    (4): Linear(in_features=1440, out_features=1, bias=True)
    (5): Sigmoid()
  )
)
2020-11-06 12:08:57,401   Growth ID 44, Growing from 45X to 46X.....
2020-11-06 12:08:57,401   m_spa=16, ln_emb=[    1460      583 10131227  2202608      305       24    12517      633
        3    93145     5683  8351593     3194       27    14992  5461306
       10     5652     2173        4  7046547       18       15   286181
…
    (12): EmbeddingBag(3194, 16, mode=sum)
    (13): EmbeddingBag(27, 16, mode=sum)
    (14): EmbeddingBag(14992, 16, mode=sum)
    (15): EmbeddingBag(5461306, 16, mode=sum)
    (16): EmbeddingBag(10, 16, mode=sum)
    (17): EmbeddingBag(5652, 16, mode=sum)
    (18): EmbeddingBag(2173, 16, mode=sum)
    (19): EmbeddingBag(4, 16, mode=sum)
    (20): EmbeddingBag(7046547, 16, mode=sum)
    (21): EmbeddingBag(18, 16, mode=sum)
    (22): EmbeddingBag(15, 16, mode=sum)
    (23): EmbeddingBag(286181, 16, mode=sum)
    (24): EmbeddingBag(105, 16, mode=sum)
    (25): EmbeddingBag(142572, 16, mode=sum)
  )
  (bot_l): Sequential(
    (0): Linear(in_features=13, out_features=2944, bias=True)
    (1): ReLU()
    (2): Linear(in_features=2944, out_features=1472, bias=True)
    (3): ReLU()
    (4): Linear(in_features=1472, out_features=1518, bias=True)
    (5): ReLU()
    (6): Linear(in_features=1518, out_features=16, bias=True)
    (7): ReLU()
  )
  (top_l): Sequential(
    (0): Linear(in_features=367, out_features=2944, bias=True)
    (1): ReLU()
    (2): Linear(in_features=2944, out_features=1472, bias=True)
    (3): ReLU()
    (4): Linear(in_features=1472, out_features=1, bias=True)
    (5): Sigmoid()
  )
)
2020-11-06 12:09:34,838   Growth ID 45, Growing from 46X to 47X.....
2020-11-06 12:09:34,838   m_spa=16, ln_emb=[    1460      583 10131227  2202608      305       24    12517      633
        3    93145     5683  8351593     3194       27    14992  5461306
       10     5652     2173        4  7046547       18       15   286181
…
    (12): EmbeddingBag(3194, 16, mode=sum)
    (13): EmbeddingBag(27, 16, mode=sum)
    (14): EmbeddingBag(14992, 16, mode=sum)
    (15): EmbeddingBag(5461306, 16, mode=sum)
    (16): EmbeddingBag(10, 16, mode=sum)
    (17): EmbeddingBag(5652, 16, mode=sum)
    (18): EmbeddingBag(2173, 16, mode=sum)
    (19): EmbeddingBag(4, 16, mode=sum)
    (20): EmbeddingBag(7046547, 16, mode=sum)
    (21): EmbeddingBag(18, 16, mode=sum)
    (22): EmbeddingBag(15, 16, mode=sum)
    (23): EmbeddingBag(286181, 16, mode=sum)
    (24): EmbeddingBag(105, 16, mode=sum)
    (25): EmbeddingBag(142572, 16, mode=sum)
  )
  (bot_l): Sequential(
    (0): Linear(in_features=13, out_features=3008, bias=True)
    (1): ReLU()
    (2): Linear(in_features=3008, out_features=1504, bias=True)
    (3): ReLU()
    (4): Linear(in_features=1504, out_features=1551, bias=True)
    (5): ReLU()
    (6): Linear(in_features=1551, out_features=16, bias=True)
    (7): ReLU()
  )
  (top_l): Sequential(
    (0): Linear(in_features=367, out_features=3008, bias=True)
    (1): ReLU()
    (2): Linear(in_features=3008, out_features=1504, bias=True)
    (3): ReLU()
    (4): Linear(in_features=1504, out_features=1, bias=True)
    (5): Sigmoid()
  )
)
2020-11-06 12:10:10,669   Growth ID 46, Growing from 47X to 48X.....
2020-11-06 12:10:10,669   m_spa=16, ln_emb=[    1460      583 10131227  2202608      305       24    12517      633
        3    93145     5683  8351593     3194       27    14992  5461306
       10     5652     2173        4  7046547       18       15   286181
…
    (12): EmbeddingBag(3194, 16, mode=sum)
    (13): EmbeddingBag(27, 16, mode=sum)
    (14): EmbeddingBag(14992, 16, mode=sum)
    (15): EmbeddingBag(5461306, 16, mode=sum)
    (16): EmbeddingBag(10, 16, mode=sum)
    (17): EmbeddingBag(5652, 16, mode=sum)
    (18): EmbeddingBag(2173, 16, mode=sum)
    (19): EmbeddingBag(4, 16, mode=sum)
    (20): EmbeddingBag(7046547, 16, mode=sum)
    (21): EmbeddingBag(18, 16, mode=sum)
    (22): EmbeddingBag(15, 16, mode=sum)
    (23): EmbeddingBag(286181, 16, mode=sum)
    (24): EmbeddingBag(105, 16, mode=sum)
    (25): EmbeddingBag(142572, 16, mode=sum)
  )
  (bot_l): Sequential(
    (0): Linear(in_features=13, out_features=3072, bias=True)
    (1): ReLU()
    (2): Linear(in_features=3072, out_features=1536, bias=True)
    (3): ReLU()
    (4): Linear(in_features=1536, out_features=1584, bias=True)
    (5): ReLU()
    (6): Linear(in_features=1584, out_features=16, bias=True)
    (7): ReLU()
  )
  (top_l): Sequential(
    (0): Linear(in_features=367, out_features=3072, bias=True)
    (1): ReLU()
    (2): Linear(in_features=3072, out_features=1536, bias=True)
    (3): ReLU()
    (4): Linear(in_features=1536, out_features=1, bias=True)
    (5): Sigmoid()
  )
)
2020-11-06 12:10:51,326   Growth ID 47, Growing from 48X to 49X.....
2020-11-06 12:10:51,326   m_spa=16, ln_emb=[    1460      583 10131227  2202608      305       24    12517      633
        3    93145     5683  8351593     3194       27    14992  5461306
       10     5652     2173        4  7046547       18       15   286181
…
    (12): EmbeddingBag(3194, 16, mode=sum)
    (13): EmbeddingBag(27, 16, mode=sum)
    (14): EmbeddingBag(14992, 16, mode=sum)
    (15): EmbeddingBag(5461306, 16, mode=sum)
    (16): EmbeddingBag(10, 16, mode=sum)
    (17): EmbeddingBag(5652, 16, mode=sum)
    (18): EmbeddingBag(2173, 16, mode=sum)
    (19): EmbeddingBag(4, 16, mode=sum)
    (20): EmbeddingBag(7046547, 16, mode=sum)
    (21): EmbeddingBag(18, 16, mode=sum)
    (22): EmbeddingBag(15, 16, mode=sum)
    (23): EmbeddingBag(286181, 16, mode=sum)
    (24): EmbeddingBag(105, 16, mode=sum)
    (25): EmbeddingBag(142572, 16, mode=sum)
  )
  (bot_l): Sequential(
    (0): Linear(in_features=13, out_features=3136, bias=True)
    (1): ReLU()
    (2): Linear(in_features=3136, out_features=1568, bias=True)
    (3): ReLU()
    (4): Linear(in_features=1568, out_features=1617, bias=True)
    (5): ReLU()
    (6): Linear(in_features=1617, out_features=16, bias=True)
    (7): ReLU()
  )
  (top_l): Sequential(
    (0): Linear(in_features=367, out_features=3136, bias=True)
    (1): ReLU()
    (2): Linear(in_features=3136, out_features=1568, bias=True)
    (3): ReLU()
    (4): Linear(in_features=1568, out_features=1, bias=True)
    (5): Sigmoid()
  )
)
2020-11-06 12:11:29,688   Growth ID 48, Growing from 49X to 50X.....
2020-11-06 12:11:29,689   m_spa=16, ln_emb=[    1460      583 10131227  2202608      305       24    12517      633
        3    93145     5683  8351593     3194       27    14992  5461306
       10     5652     2173        4  7046547       18       15   286181
…
    (12): EmbeddingBag(3194, 16, mode=sum)
    (13): EmbeddingBag(27, 16, mode=sum)
    (14): EmbeddingBag(14992, 16, mode=sum)
    (15): EmbeddingBag(5461306, 16, mode=sum)
    (16): EmbeddingBag(10, 16, mode=sum)
    (17): EmbeddingBag(5652, 16, mode=sum)
    (18): EmbeddingBag(2173, 16, mode=sum)
    (19): EmbeddingBag(4, 16, mode=sum)
    (20): EmbeddingBag(7046547, 16, mode=sum)
    (21): EmbeddingBag(18, 16, mode=sum)
    (22): EmbeddingBag(15, 16, mode=sum)
    (23): EmbeddingBag(286181, 16, mode=sum)
    (24): EmbeddingBag(105, 16, mode=sum)
    (25): EmbeddingBag(142572, 16, mode=sum)
  )
  (bot_l): Sequential(
    (0): Linear(in_features=13, out_features=3200, bias=True)
    (1): ReLU()
    (2): Linear(in_features=3200, out_features=1600, bias=True)
    (3): ReLU()
    (4): Linear(in_features=1600, out_features=1650, bias=True)
    (5): ReLU()
    (6): Linear(in_features=1650, out_features=16, bias=True)
    (7): ReLU()
  )
  (top_l): Sequential(
    (0): Linear(in_features=367, out_features=3200, bias=True)
    (1): ReLU()
    (2): Linear(in_features=3200, out_features=1600, bias=True)
    (3): ReLU()
    (4): Linear(in_features=1600, out_features=1, bias=True)
    (5): Sigmoid()
  )
)
2020-11-06 12:12:08,502   Growth ID 49, Growing from 50X to 51X.....
2020-11-06 12:12:08,502   m_spa=16, ln_emb=[    1460      583 10131227  2202608      305       24    12517      633
        3    93145     5683  8351593     3194       27    14992  5461306
       10     5652     2173        4  7046547       18       15   286181
…
    (12): EmbeddingBag(3194, 16, mode=sum)
    (13): EmbeddingBag(27, 16, mode=sum)
    (14): EmbeddingBag(14992, 16, mode=sum)
    (15): EmbeddingBag(5461306, 16, mode=sum)
    (16): EmbeddingBag(10, 16, mode=sum)
    (17): EmbeddingBag(5652, 16, mode=sum)
    (18): EmbeddingBag(2173, 16, mode=sum)
    (19): EmbeddingBag(4, 16, mode=sum)
    (20): EmbeddingBag(7046547, 16, mode=sum)
    (21): EmbeddingBag(18, 16, mode=sum)
    (22): EmbeddingBag(15, 16, mode=sum)
    (23): EmbeddingBag(286181, 16, mode=sum)
    (24): EmbeddingBag(105, 16, mode=sum)
    (25): EmbeddingBag(142572, 16, mode=sum)
  )
  (bot_l): Sequential(
    (0): Linear(in_features=13, out_features=3264, bias=True)
    (1): ReLU()
    (2): Linear(in_features=3264, out_features=1632, bias=True)
    (3): ReLU()
    (4): Linear(in_features=1632, out_features=1683, bias=True)
    (5): ReLU()
    (6): Linear(in_features=1683, out_features=16, bias=True)
    (7): ReLU()
  )
  (top_l): Sequential(
    (0): Linear(in_features=367, out_features=3264, bias=True)
    (1): ReLU()
    (2): Linear(in_features=3264, out_features=1632, bias=True)
    (3): ReLU()
    (4): Linear(in_features=1632, out_features=1, bias=True)
    (5): Sigmoid()
  )
)
2020-11-06 12:12:47,777   Growth ID 50, Growing from 51X to 52X.....
2020-11-06 12:12:47,778   m_spa=16, ln_emb=[    1460      583 10131227  2202608      305       24    12517      633
        3    93145     5683  8351593     3194       27    14992  5461306
       10     5652     2173        4  7046547       18       15   286181
…
    (12): EmbeddingBag(3194, 16, mode=sum)
    (13): EmbeddingBag(27, 16, mode=sum)
    (14): EmbeddingBag(14992, 16, mode=sum)
    (15): EmbeddingBag(5461306, 16, mode=sum)
    (16): EmbeddingBag(10, 16, mode=sum)
    (17): EmbeddingBag(5652, 16, mode=sum)
    (18): EmbeddingBag(2173, 16, mode=sum)
    (19): EmbeddingBag(4, 16, mode=sum)
    (20): EmbeddingBag(7046547, 16, mode=sum)
    (21): EmbeddingBag(18, 16, mode=sum)
    (22): EmbeddingBag(15, 16, mode=sum)
    (23): EmbeddingBag(286181, 16, mode=sum)
    (24): EmbeddingBag(105, 16, mode=sum)
    (25): EmbeddingBag(142572, 16, mode=sum)
  )
  (bot_l): Sequential(
    (0): Linear(in_features=13, out_features=3328, bias=True)
    (1): ReLU()
    (2): Linear(in_features=3328, out_features=1664, bias=True)
    (3): ReLU()
    (4): Linear(in_features=1664, out_features=1716, bias=True)
    (5): ReLU()
    (6): Linear(in_features=1716, out_features=16, bias=True)
    (7): ReLU()
  )
  (top_l): Sequential(
    (0): Linear(in_features=367, out_features=3328, bias=True)
    (1): ReLU()
    (2): Linear(in_features=3328, out_features=1664, bias=True)
    (3): ReLU()
    (4): Linear(in_features=1664, out_features=1, bias=True)
    (5): Sigmoid()
  )
)
2020-11-06 12:13:25,934   Growth ID 51, Growing from 52X to 53X.....
2020-11-06 12:13:25,935   m_spa=16, ln_emb=[    1460      583 10131227  2202608      305       24    12517      633
        3    93145     5683  8351593     3194       27    14992  5461306
       10     5652     2173        4  7046547       18       15   286181
…
    (12): EmbeddingBag(3194, 16, mode=sum)
    (13): EmbeddingBag(27, 16, mode=sum)
    (14): EmbeddingBag(14992, 16, mode=sum)
    (15): EmbeddingBag(5461306, 16, mode=sum)
    (16): EmbeddingBag(10, 16, mode=sum)
    (17): EmbeddingBag(5652, 16, mode=sum)
    (18): EmbeddingBag(2173, 16, mode=sum)
    (19): EmbeddingBag(4, 16, mode=sum)
    (20): EmbeddingBag(7046547, 16, mode=sum)
    (21): EmbeddingBag(18, 16, mode=sum)
    (22): EmbeddingBag(15, 16, mode=sum)
    (23): EmbeddingBag(286181, 16, mode=sum)
    (24): EmbeddingBag(105, 16, mode=sum)
    (25): EmbeddingBag(142572, 16, mode=sum)
  )
  (bot_l): Sequential(
    (0): Linear(in_features=13, out_features=3392, bias=True)
    (1): ReLU()
    (2): Linear(in_features=3392, out_features=1696, bias=True)
    (3): ReLU()
    (4): Linear(in_features=1696, out_features=1749, bias=True)
    (5): ReLU()
    (6): Linear(in_features=1749, out_features=16, bias=True)
    (7): ReLU()
  )
  (top_l): Sequential(
    (0): Linear(in_features=367, out_features=3392, bias=True)
    (1): ReLU()
    (2): Linear(in_features=3392, out_features=1696, bias=True)
    (3): ReLU()
    (4): Linear(in_features=1696, out_features=1, bias=True)
    (5): Sigmoid()
  )
)
2020-11-06 12:15:46,760   Growth ID 52, Growing from 53X to 54X.....
2020-11-06 12:15:46,760   m_spa=16, ln_emb=[    1460      583 10131227  2202608      305       24    12517      633
        3    93145     5683  8351593     3194       27    14992  5461306
       10     5652     2173        4  7046547       18       15   286181
…
    (12): EmbeddingBag(3194, 16, mode=sum)
    (13): EmbeddingBag(27, 16, mode=sum)
    (14): EmbeddingBag(14992, 16, mode=sum)
    (15): EmbeddingBag(5461306, 16, mode=sum)
    (16): EmbeddingBag(10, 16, mode=sum)
    (17): EmbeddingBag(5652, 16, mode=sum)
    (18): EmbeddingBag(2173, 16, mode=sum)
    (19): EmbeddingBag(4, 16, mode=sum)
    (20): EmbeddingBag(7046547, 16, mode=sum)
    (21): EmbeddingBag(18, 16, mode=sum)
    (22): EmbeddingBag(15, 16, mode=sum)
    (23): EmbeddingBag(286181, 16, mode=sum)
    (24): EmbeddingBag(105, 16, mode=sum)
    (25): EmbeddingBag(142572, 16, mode=sum)
  )
  (bot_l): Sequential(
    (0): Linear(in_features=13, out_features=3456, bias=True)
    (1): ReLU()
    (2): Linear(in_features=3456, out_features=1728, bias=True)
    (3): ReLU()
    (4): Linear(in_features=1728, out_features=1782, bias=True)
    (5): ReLU()
    (6): Linear(in_features=1782, out_features=16, bias=True)
    (7): ReLU()
  )
  (top_l): Sequential(
    (0): Linear(in_features=367, out_features=3456, bias=True)
    (1): ReLU()
    (2): Linear(in_features=3456, out_features=1728, bias=True)
    (3): ReLU()
    (4): Linear(in_features=1728, out_features=1, bias=True)
    (5): Sigmoid()
  )
)
2020-11-06 12:16:26,257   Growth ID 53, Growing from 54X to 55X.....
2020-11-06 12:16:26,257   m_spa=16, ln_emb=[    1460      583 10131227  2202608      305       24    12517      633
        3    93145     5683  8351593     3194       27    14992  5461306
       10     5652     2173        4  7046547       18       15   286181
…
    (12): EmbeddingBag(3194, 16, mode=sum)
    (13): EmbeddingBag(27, 16, mode=sum)
    (14): EmbeddingBag(14992, 16, mode=sum)
    (15): EmbeddingBag(5461306, 16, mode=sum)
    (16): EmbeddingBag(10, 16, mode=sum)
    (17): EmbeddingBag(5652, 16, mode=sum)
    (18): EmbeddingBag(2173, 16, mode=sum)
    (19): EmbeddingBag(4, 16, mode=sum)
    (20): EmbeddingBag(7046547, 16, mode=sum)
    (21): EmbeddingBag(18, 16, mode=sum)
    (22): EmbeddingBag(15, 16, mode=sum)
    (23): EmbeddingBag(286181, 16, mode=sum)
    (24): EmbeddingBag(105, 16, mode=sum)
    (25): EmbeddingBag(142572, 16, mode=sum)
  )
  (bot_l): Sequential(
    (0): Linear(in_features=13, out_features=3520, bias=True)
    (1): ReLU()
    (2): Linear(in_features=3520, out_features=1760, bias=True)
    (3): ReLU()
    (4): Linear(in_features=1760, out_features=1815, bias=True)
    (5): ReLU()
    (6): Linear(in_features=1815, out_features=16, bias=True)
    (7): ReLU()
  )
  (top_l): Sequential(
    (0): Linear(in_features=367, out_features=3520, bias=True)
    (1): ReLU()
    (2): Linear(in_features=3520, out_features=1760, bias=True)
    (3): ReLU()
    (4): Linear(in_features=1760, out_features=1, bias=True)
    (5): Sigmoid()
  )
)
2020-11-06 12:17:05,690   Growth ID 54, Growing from 55X to 56X.....
2020-11-06 12:17:05,691   m_spa=16, ln_emb=[    1460      583 10131227  2202608      305       24    12517      633
        3    93145     5683  8351593     3194       27    14992  5461306
       10     5652     2173        4  7046547       18       15   286181
…
