…
    (12): EmbeddingBag(3194, 16, mode=sum)
    (13): EmbeddingBag(27, 16, mode=sum)
    (14): EmbeddingBag(14992, 16, mode=sum)
    (15): EmbeddingBag(5461306, 16, mode=sum)
    (16): EmbeddingBag(10, 16, mode=sum)
    (17): EmbeddingBag(5652, 16, mode=sum)
    (18): EmbeddingBag(2173, 16, mode=sum)
    (19): EmbeddingBag(4, 16, mode=sum)
    (20): EmbeddingBag(7046547, 16, mode=sum)
    (21): EmbeddingBag(18, 16, mode=sum)
    (22): EmbeddingBag(15, 16, mode=sum)
    (23): EmbeddingBag(286181, 16, mode=sum)
    (24): EmbeddingBag(105, 16, mode=sum)
    (25): EmbeddingBag(142572, 16, mode=sum)
  )
  (bot_l): Sequential(
    (0): Linear(in_features=13, out_features=64, bias=True)
    (1): ReLU()
    (2): Linear(in_features=64, out_features=32, bias=True)
    (3): ReLU()
    (4): Linear(in_features=32, out_features=33, bias=True)
    (5): ReLU()
    (6): Linear(in_features=33, out_features=16, bias=True)
    (7): ReLU()
  )
  (top_l): Sequential(
    (0): Linear(in_features=367, out_features=64, bias=True)
    (1): ReLU()
    (2): Linear(in_features=64, out_features=32, bias=True)
    (3): ReLU()
    (4): Linear(in_features=32, out_features=1, bias=True)
    (5): Sigmoid()
  )
)
2020-11-12 19:38:52,287   Growth ID 0, Growing from 1X to 2X.....
2020-11-12 19:38:52,287   m_spa=16, ln_emb=[    1460      583 10131227  2202608      305       24    12517      633
        3    93145     5683  8351593     3194       27    14992  5461306
       10     5652     2173        4  7046547       18       15   286181
      105   142572], ln_bot=[ 13 128  64  66  16], ln_top=[367 128  64   1]
…
    (12): EmbeddingBag(3194, 16, mode=sum)
    (13): EmbeddingBag(27, 16, mode=sum)
    (14): EmbeddingBag(14992, 16, mode=sum)
    (15): EmbeddingBag(5461306, 16, mode=sum)
    (16): EmbeddingBag(10, 16, mode=sum)
    (17): EmbeddingBag(5652, 16, mode=sum)
    (18): EmbeddingBag(2173, 16, mode=sum)
    (19): EmbeddingBag(4, 16, mode=sum)
    (20): EmbeddingBag(7046547, 16, mode=sum)
    (21): EmbeddingBag(18, 16, mode=sum)
    (22): EmbeddingBag(15, 16, mode=sum)
    (23): EmbeddingBag(286181, 16, mode=sum)
    (24): EmbeddingBag(105, 16, mode=sum)
    (25): EmbeddingBag(142572, 16, mode=sum)
  )
  (bot_l): Sequential(
    (0): Linear(in_features=13, out_features=128, bias=True)
    (1): ReLU()
    (2): Linear(in_features=128, out_features=64, bias=True)
    (3): ReLU()
    (4): Linear(in_features=64, out_features=66, bias=True)
    (5): ReLU()
    (6): Linear(in_features=66, out_features=16, bias=True)
    (7): ReLU()
  )
  (top_l): Sequential(
    (0): Linear(in_features=367, out_features=128, bias=True)
    (1): ReLU()
    (2): Linear(in_features=128, out_features=64, bias=True)
    (3): ReLU()
    (4): Linear(in_features=64, out_features=1, bias=True)
    (5): Sigmoid()
  )
)
2020-11-12 19:51:56,940   Growth ID 1, Growing from 2X to 3X.....
2020-11-12 19:51:56,940   m_spa=16, ln_emb=[    1460      583 10131227  2202608      305       24    12517      633
        3    93145     5683  8351593     3194       27    14992  5461306
       10     5652     2173        4  7046547       18       15   286181
      105   142572], ln_bot=[ 13 192  96  99  16], ln_top=[367 192  96   1]
…
    (12): EmbeddingBag(3194, 16, mode=sum)
    (13): EmbeddingBag(27, 16, mode=sum)
    (14): EmbeddingBag(14992, 16, mode=sum)
    (15): EmbeddingBag(5461306, 16, mode=sum)
    (16): EmbeddingBag(10, 16, mode=sum)
    (17): EmbeddingBag(5652, 16, mode=sum)
    (18): EmbeddingBag(2173, 16, mode=sum)
    (19): EmbeddingBag(4, 16, mode=sum)
    (20): EmbeddingBag(7046547, 16, mode=sum)
    (21): EmbeddingBag(18, 16, mode=sum)
    (22): EmbeddingBag(15, 16, mode=sum)
    (23): EmbeddingBag(286181, 16, mode=sum)
    (24): EmbeddingBag(105, 16, mode=sum)
    (25): EmbeddingBag(142572, 16, mode=sum)
  )
  (bot_l): Sequential(
    (0): Linear(in_features=13, out_features=192, bias=True)
    (1): ReLU()
    (2): Linear(in_features=192, out_features=96, bias=True)
    (3): ReLU()
    (4): Linear(in_features=96, out_features=99, bias=True)
    (5): ReLU()
    (6): Linear(in_features=99, out_features=16, bias=True)
    (7): ReLU()
  )
  (top_l): Sequential(
    (0): Linear(in_features=367, out_features=192, bias=True)
    (1): ReLU()
    (2): Linear(in_features=192, out_features=96, bias=True)
    (3): ReLU()
    (4): Linear(in_features=96, out_features=1, bias=True)
    (5): Sigmoid()
  )
)
2020-11-12 20:05:07,539   Growth ID 2, Growing from 3X to 4X.....
2020-11-12 20:05:07,539   m_spa=16, ln_emb=[    1460      583 10131227  2202608      305       24    12517      633
        3    93145     5683  8351593     3194       27    14992  5461306
       10     5652     2173        4  7046547       18       15   286181
      105   142572], ln_bot=[ 13 256 128 132  16], ln_top=[367 256 128   1]
…
    (12): EmbeddingBag(3194, 16, mode=sum)
    (13): EmbeddingBag(27, 16, mode=sum)
    (14): EmbeddingBag(14992, 16, mode=sum)
    (15): EmbeddingBag(5461306, 16, mode=sum)
    (16): EmbeddingBag(10, 16, mode=sum)
    (17): EmbeddingBag(5652, 16, mode=sum)
    (18): EmbeddingBag(2173, 16, mode=sum)
    (19): EmbeddingBag(4, 16, mode=sum)
    (20): EmbeddingBag(7046547, 16, mode=sum)
    (21): EmbeddingBag(18, 16, mode=sum)
    (22): EmbeddingBag(15, 16, mode=sum)
    (23): EmbeddingBag(286181, 16, mode=sum)
    (24): EmbeddingBag(105, 16, mode=sum)
    (25): EmbeddingBag(142572, 16, mode=sum)
  )
  (bot_l): Sequential(
    (0): Linear(in_features=13, out_features=256, bias=True)
    (1): ReLU()
    (2): Linear(in_features=256, out_features=128, bias=True)
    (3): ReLU()
    (4): Linear(in_features=128, out_features=132, bias=True)
    (5): ReLU()
    (6): Linear(in_features=132, out_features=16, bias=True)
    (7): ReLU()
  )
  (top_l): Sequential(
    (0): Linear(in_features=367, out_features=256, bias=True)
    (1): ReLU()
    (2): Linear(in_features=256, out_features=128, bias=True)
    (3): ReLU()
    (4): Linear(in_features=128, out_features=1, bias=True)
    (5): Sigmoid()
  )
)
2020-11-12 20:20:23,217   Growth ID 3, Growing from 4X to 5X.....
2020-11-12 20:20:23,218   m_spa=16, ln_emb=[    1460      583 10131227  2202608      305       24    12517      633
        3    93145     5683  8351593     3194       27    14992  5461306
       10     5652     2173        4  7046547       18       15   286181
      105   142572], ln_bot=[ 13 320 160 165  16], ln_top=[367 320 160   1]
…
