…
    (12): EmbeddingBag(3194, 8, mode=sum)
    (13): EmbeddingBag(27, 8, mode=sum)
    (14): EmbeddingBag(14992, 8, mode=sum)
    (15): EmbeddingBag(5461306, 8, mode=sum)
    (16): EmbeddingBag(10, 8, mode=sum)
    (17): EmbeddingBag(5652, 8, mode=sum)
    (18): EmbeddingBag(2173, 8, mode=sum)
    (19): EmbeddingBag(4, 8, mode=sum)
    (20): EmbeddingBag(7046547, 8, mode=sum)
    (21): EmbeddingBag(18, 8, mode=sum)
    (22): EmbeddingBag(15, 8, mode=sum)
    (23): EmbeddingBag(286181, 8, mode=sum)
    (24): EmbeddingBag(105, 8, mode=sum)
    (25): EmbeddingBag(142572, 8, mode=sum)
  )
  (bot_l): Sequential(
    (0): Linear(in_features=13, out_features=64, bias=True)
    (1): ReLU()
    (2): Linear(in_features=64, out_features=32, bias=True)
    (3): ReLU()
    (4): Linear(in_features=32, out_features=33, bias=True)
    (5): ReLU()
    (6): Linear(in_features=33, out_features=8, bias=True)
    (7): ReLU()
  )
  (top_l): Sequential(
    (0): Linear(in_features=359, out_features=64, bias=True)
    (1): ReLU()
    (2): Linear(in_features=64, out_features=32, bias=True)
    (3): ReLU()
    (4): Linear(in_features=32, out_features=1, bias=True)
    (5): Sigmoid()
  )
)
2020-11-12 21:47:55,638   
param size = 270.13M
2020-11-12 21:47:55,639   
m_spa=8, ln_emb=[    1460      583 10131227  2202608      305       24    12517      633
        3    93145     5683  8351593     3194       27    14992  5461306
       10     5652     2173        4  7046547       18       15   286181
      105   142572], ln_bot=[13 64 32 33  8], ln_top=[359  64  32   1]
…
    (12): EmbeddingBag(3194, 16, mode=sum)
    (13): EmbeddingBag(27, 16, mode=sum)
    (14): EmbeddingBag(14992, 16, mode=sum)
    (15): EmbeddingBag(5461306, 16, mode=sum)
    (16): EmbeddingBag(10, 16, mode=sum)
    (17): EmbeddingBag(5652, 16, mode=sum)
    (18): EmbeddingBag(2173, 16, mode=sum)
    (19): EmbeddingBag(4, 16, mode=sum)
    (20): EmbeddingBag(7046547, 16, mode=sum)
    (21): EmbeddingBag(18, 16, mode=sum)
    (22): EmbeddingBag(15, 16, mode=sum)
    (23): EmbeddingBag(286181, 16, mode=sum)
    (24): EmbeddingBag(105, 16, mode=sum)
    (25): EmbeddingBag(142572, 16, mode=sum)
  )
  (bot_l): Sequential(
    (0): Linear(in_features=13, out_features=128, bias=True)
    (1): ReLU()
    (2): Linear(in_features=128, out_features=64, bias=True)
    (3): ReLU()
    (4): Linear(in_features=64, out_features=66, bias=True)
    (5): ReLU()
    (6): Linear(in_features=66, out_features=16, bias=True)
    (7): ReLU()
  )
  (top_l): Sequential(
    (0): Linear(in_features=367, out_features=128, bias=True)
    (1): ReLU()
    (2): Linear(in_features=128, out_features=64, bias=True)
    (3): ReLU()
    (4): Linear(in_features=64, out_features=1, bias=True)
    (5): Sigmoid()
  )
)
2020-11-12 21:58:48,523   
param size = 540.27M
2020-11-12 21:58:48,524   
m_spa=16, ln_emb=[    1460      583 10131227  2202608      305       24    12517      633
        3    93145     5683  8351593     3194       27    14992  5461306
       10     5652     2173        4  7046547       18       15   286181
      105   142572], ln_bot=[ 13 128  64  66  16], ln_top=[367 128  64   1]
…
    (12): EmbeddingBag(3194, 24, mode=sum)
    (13): EmbeddingBag(27, 24, mode=sum)
    (14): EmbeddingBag(14992, 24, mode=sum)
    (15): EmbeddingBag(5461306, 24, mode=sum)
    (16): EmbeddingBag(10, 24, mode=sum)
    (17): EmbeddingBag(5652, 24, mode=sum)
    (18): EmbeddingBag(2173, 24, mode=sum)
    (19): EmbeddingBag(4, 24, mode=sum)
    (20): EmbeddingBag(7046547, 24, mode=sum)
    (21): EmbeddingBag(18, 24, mode=sum)
    (22): EmbeddingBag(15, 24, mode=sum)
    (23): EmbeddingBag(286181, 24, mode=sum)
    (24): EmbeddingBag(105, 24, mode=sum)
    (25): EmbeddingBag(142572, 24, mode=sum)
  )
  (bot_l): Sequential(
    (0): Linear(in_features=13, out_features=192, bias=True)
    (1): ReLU()
    (2): Linear(in_features=192, out_features=96, bias=True)
    (3): ReLU()
    (4): Linear(in_features=96, out_features=99, bias=True)
    (5): ReLU()
    (6): Linear(in_features=99, out_features=24, bias=True)
    (7): ReLU()
  )
  (top_l): Sequential(
    (0): Linear(in_features=375, out_features=192, bias=True)
    (1): ReLU()
    (2): Linear(in_features=192, out_features=96, bias=True)
    (3): ReLU()
    (4): Linear(in_features=96, out_features=1, bias=True)
    (5): Sigmoid()
  )
)
2020-11-12 22:15:47,580   
param size = 810.43M
2020-11-12 22:15:47,580   
m_spa=24, ln_emb=[    1460      583 10131227  2202608      305       24    12517      633
        3    93145     5683  8351593     3194       27    14992  5461306
       10     5652     2173        4  7046547       18       15   286181
      105   142572], ln_bot=[ 13 192  96  99  24], ln_top=[375 192  96   1]
…
    (12): EmbeddingBag(3194, 32, mode=sum)
    (13): EmbeddingBag(27, 32, mode=sum)
    (14): EmbeddingBag(14992, 32, mode=sum)
    (15): EmbeddingBag(5461306, 32, mode=sum)
    (16): EmbeddingBag(10, 32, mode=sum)
    (17): EmbeddingBag(5652, 32, mode=sum)
    (18): EmbeddingBag(2173, 32, mode=sum)
    (19): EmbeddingBag(4, 32, mode=sum)
    (20): EmbeddingBag(7046547, 32, mode=sum)
    (21): EmbeddingBag(18, 32, mode=sum)
    (22): EmbeddingBag(15, 32, mode=sum)
    (23): EmbeddingBag(286181, 32, mode=sum)
    (24): EmbeddingBag(105, 32, mode=sum)
    (25): EmbeddingBag(142572, 32, mode=sum)
  )
  (bot_l): Sequential(
    (0): Linear(in_features=13, out_features=256, bias=True)
    (1): ReLU()
    (2): Linear(in_features=256, out_features=128, bias=True)
    (3): ReLU()
    (4): Linear(in_features=128, out_features=132, bias=True)
    (5): ReLU()
    (6): Linear(in_features=132, out_features=32, bias=True)
    (7): ReLU()
  )
  (top_l): Sequential(
    (0): Linear(in_features=383, out_features=256, bias=True)
    (1): ReLU()
    (2): Linear(in_features=256, out_features=128, bias=True)
    (3): ReLU()
    (4): Linear(in_features=128, out_features=1, bias=True)
    (5): Sigmoid()
  )
)
2020-11-12 22:36:23,904   
param size = 1080.59M
2020-11-12 22:36:23,904   
m_spa=32, ln_emb=[    1460      583 10131227  2202608      305       24    12517      633
        3    93145     5683  8351593     3194       27    14992  5461306
       10     5652     2173        4  7046547       18       15   286181
      105   142572], ln_bot=[ 13 256 128 132  32], ln_top=[383 256 128   1]
…
